models/sony_images/states/tf_export/g_conv2_2/weights.npy (npy, 147584 bytes, 1 tensors)

array f4 [3, 3, 64, 64]
00000000: 9aa2 ffbc 110a 16be ca6d 46bd c8f6 53bd
00000010: 1aa2 f3bc 9620 71bd a5aa c83b edc1 733d
00000020: 7d18 063d 619e c33c 98a2 89bd a171 bd3c
00000030: 8819 2fbd ce6a 8bbd 986b 963d 3ee6 a5bb
00000040: 7552 4f3d 88ea 98bc 96d7 bfbc 8d03 8f3b
00000050: ef68 ebbd 3e80 99bd 5517 c9bd 7b06 adbd
00000060: 1e28 c73d 40aa 0abd 32a9 12bd 307d afbc
00000070: 2de5 1b3d c176 373d b220 8cbc 7e30 303e
00000080: f9f2 f4bb a3af e83c 5dc8 443c 3bc7 353d
00000090: 74df 49bd 687d 463d bb02 803d 98b9 c5bd
000000a0: 35fa 473b 1123 2cbd 33b5 b13d 0b49 f3bd
000000b0: f4b2 6fbc b7df 6bba 5178 083d 24ad 1b3d
000000c0: d56b 0ebb 2856 cf39 e695 453d 9018 8b3c
000000d0: 2613 76bd b2ec febc d9b2 74bc b396 953d
000000e0: 93ce 48bd 724a dc3d 5e08 083a aedc 42be
000000f0: d221 853a 5992 d4bd 1f8c 69bd 34f1 c23c
00000100: cfd1 a73c b0c6 643d ef9a 70bd b570 783d
00000110: 287f dbbd f587 09be f07c 03be 0f46 1c3d
00000120: 2a28 16bd 2afc ff3c e08a f0ba 2bbb 4cbd
00000130: 8f59 443d abbf c73c a956 afba 4c0c 923d
00000140: da4e b03d 42bf 5b3d 1afc 7239 5670 8b3d
00000150: 055f bcbd 6e99 a13d 9744 80bc 5cc8 8fbc
00000160: 9024 ffbb fb1e 96bb 312d fabc fa39 643d
00000170: 6a5a d8bc 20a3 7d3d f258 f4bc c895 4d3a
00000180: 4073 013d b582 edbc d2be 2b3d 1b4c 143d
00000190: dc53 8fbc df7b a03d 710e 10bc 13f3 dfbb
000001a0: a7d1 623a 81f4 7a3d 79e2 b73d 3043 3b3d
000001b0: ca82 9c3c 2992 033d 4294 e33c 1564 0a3b
000001c0: 99eb 71bc 4777 a23d 35d5 08be 4890 c8bc
000001d0: c55b 0b3a 480c 543c 61b2 8f3a 041d 383c
000001e0: 1327 b1bd 7601 503d 849f c7bc 5184 59bc
000001f0: 413c 2a3d aeb6 d9bc 8995 2dbc c34e f2bb
00000200: 1abd 9fbd 29fe 383d 2c7f e23d 3ba3 32bc
00000210: aeb9 20bc 2a22 25bd 8600 54bb c537 8abb
00000220: 5d67 eebc 044a f33c de26 92bd eb91 6dbc
00000230: cb28 0bbd 0f92 1f3c 611d 423d 86f9 b1bd
00000240: a1bf 1e3b 0d15 24bd a993 6bbd 8e05 ccbc
00000250: a20e b53b 25f7 46bd ce44 d0bd 088e 423d
00000260: be62 8e3d a7e2 813d 6ab4 00bd 1e13 bf3d
00000270: 4fbd c13c a32b 1e3d 0163 06bb 6974 063d
00000280: 4b24 a33d 1e63 1a3d 6db0 d93a ed19 dbbc
00000290: be19 98bd 1fe2 0ebd d60a e6bc e82f 883c
000002a0: 4b05 6b3d e66a 123d d2ee 3abd 4efb 973d
000002b0: a31e d13d 595e 32bc 6bc0 173d 18d9 d93c
000002c0: 0424 e03d 55d1 52bd 9fb6 94bd c70d 9cbd
000002d0: 0413 6f3c 31ca 36bc 45de 09bd c6f8 e7bd
000002e0: d347 333d e432 f1bc 9a87 a33c 6d25 c1bc
000002f0: 3201 39bd eab0 163d 8b3e b0bc 1745 973d
00000300: 5fcf fa3c a77c 9d3c 224b a33c 9842 4abe
00000310: 8f78 d53d 3eff 8c3d 2ced 01be 5dc7 dc3c
00000320: a389 0d3d 7912 0dbd 497b 72bd 909d efbd
00000330: 8b4b 2f3c 9df6 dbbc a3bb e43d 3cb1 683d
00000340: d7c6 f1bc e7c5 8bbd a401 c13d a832 d83c
00000350: 081d 78bb cf7e 36bd 1798 c2bd 2ad5 e1bc
00000360: 417e f6bd 0369 5cbd 00ee 09bd 4fe5 a0bd
00000370: 7ab5 9dbd c259 6d3d 51da 33bc 0faa d93c
00000380: 0aea 20bd ea67 323d d9ed 0e3c c6d2 16bd
00000390: c072 d6bb b51c 0abd 713e 54bc 07d6 823d
000003a0: 02cd d93d 7a05 1fbd 58ff fc3d c5aa 03bd
000003b0: 91f1 9bbd cb75 b33d 04d7 cebc 3b95 09be
000003c0: 98cd 0cbd 7e99 893d 3868 a5ba 33fc 533d
000003d0: c98d 52bd 4d20 413d 4837 6fbb a39c 70bc
000003e0: e689 963d 1835 d33b 1b2c ed3c 3ba7 d8bd
000003f0: b8d2 f8bb 39f2 553d f2d3 473c a08f 15bd
-0.031205464 -0.14652278 -0.048444547 -0.05174902 -0.029740382 -0.058868967 0.006123858 0.059511114
0.032738198 0.023879232 -0.067204654 0.023125472 -0.042748958 -0.06807481 0.07344741 -0.0050628474
0.050615747 -0.01866652 -0.02341823 0.004364437 -0.11494624 -0.074951634 -0.09818903 -0.08448502
0.097244486 -0.03385377 -0.03580589 -0.021421999 0.038060356 0.044790987 -0.017105434 0.17205998
-0.0074752537 0.028404063 0.012010661 0.044379454 -0.049285367 0.04845944 0.06250521 -0.0965454
0.0030514125 -0.04202563 0.08677139 -0.11879166 -0.014630068 -0.00089978747 0.033317868 0.038006917
-0.0021731753 0.00039546308 0.048238657 0.016979486 -0.060076855 -0.031118724 -0.014935219 0.07304134
-0.04902513 0.10756387 0.0005189235 -0.19029495 0.0010157174 -0.10379476 -0.057018396 0.023796655
0.020485787 0.055853546 -0.058741506 0.06065436 -0.107176125 -0.1343077 -0.12840629 0.03815275
-0.036659397 0.03124817 -0.0018351935 -0.049983185 0.047936972 0.024383387 -0.0013377267 0.07131252
0.0860879 0.053649195 0.00023172834 0.06808536 -0.09197811 0.078905925 -0.015657706 -0.017551593
-0.007786341 -0.00458133 -0.030539127 0.055719353 -0.0264103 0.061923146 -0.029827569 0.00078424485
0.03160405 -0.02899299 0.041930027 0.036205392 -0.017496042 0.078361265 -0.008792506 -0.0068343966
0.00086524565 0.061268333 0.08978743 0.045718372 0.019105334 0.03212181 0.027780656 0.0021116782
-0.0147656435 0.079329066 -0.13362582 -0.024482861 0.0005316104 0.012942381 0.0010963195 0.011237387
-0.08650031 0.050782643 -0.024368055 -0.013276176 0.04156137 -0.026576366 -0.010594734 -0.007394643
-0.0779974 0.04516426 0.11059412 -0.010903175 -0.0098098945 -0.040315785 -0.0032348945 -0.004218074
-0.029102022 0.02969838 -0.071363196 -0.014500122 -0.03397445 0.009739413 0.0473913 -0.08690171
0.0024223106 -0.040059138 -0.057513867 -0.024904992 0.005525426 -0.04857554 -0.101693735 0.047498733
0.06952427 0.06342059 -0.031422056 0.09329818 0.02364984 0.038615834 -0.0020505788 0.03282586
0.07965907 0.03769218 0.0016608365 -0.02674576 -0.07426785 -0.034883615 -0.028081339 0.016624406
0.057378095 0.035746478 -0.045637913 0.074209794 0.102109216 -0.010886752 0.03704874 0.026592776
0.109443694 -0.051469166 -0.07261395 -0.07619815 0.014591936 -0.011156605 -0.03365924 -0.11326747
0.04376967 -0.029443212 0.01996212 -0.023577416 -0.045167156 0.036789812 -0.021514198 0.07386225
0.03061646 0.019224478 0.019933287 -0.19751966 0.10423385 0.06884621 -0.1268813 0.026950533
0.03455509 -0.034441445 -0.059199605 -0.116999745 0.010699163 -0.026850993 0.11168601 0.05680965
-0.02951376 -0.06824856 0.09424141 0.026391342 -0.00378591 -0.044554528 -0.09501665 -0.027567465
-0.120358 -0.053811084 -0.03367424 -0.07856237 -0.077006295 0.057946928 -0.010977344 0.026570348
-0.039285697 0.04355613 0.0087236995 -0.036822103 -0.006544441 -0.033718783 -0.01295434 0.06388479
0.10634805 -0.038823582 0.123533905 -0.03214528 -0.076144345 0.087627016 -0.025249012 -0.13435833
-0.034375757 0.067187294 -0.0012619561 0.051754188 -0.051404748 0.047149945 -0.0036501456 -0.014685783
0.07350521 0.0064455383 0.028951695 -0.10578772 -0.007593479 0.052232955 0.012196528 -0.036513925
