models/sony_images/states/tf_export/g_conv3_2/biases.npy (npy, 640 bytes, 1 tensors)

array f4 [128]
-0.048193112 -0.08244463 0.054197576 -0.032753382 -0.023696812 -0.14079401 0.045460235 -0.055992067
-0.031951644 0.006987876 0.034858655 -0.062713265 0.025067773 -0.012762886 0.03553886 -0.08920012
-0.09771215 -0.0114176795 -0.0013434712 0.06955597 -0.102618866 -0.02056655 0.017594047 -0.07733986
0.040071096 -0.014650553 -0.04928272 -0.031063352 -0.0576856 0.044121664 0.023527086 -0.032794222
0.0065150256 0.019169703 0.028094545 -0.016310664 0.007755522 -0.07526 0.010178176 -0.0668683
-0.020133672 -0.13300101 -0.015684726 0.0074263904 -0.0493095 -0.008398984 0.0020668064 -0.0121337995
-0.06940401 -0.021261547 -0.050930638 -0.09390287 -0.057362862 -0.051216427 -0.11316777 -0.0055402545
-0.10129556 -0.05086082 -0.014420742 0.06285866 -0.025237532 -0.08082048 -0.013857295 -0.099848844
-0.04752458 -0.024204165 -0.038173188 0.025811482 -0.08172598 -0.0072769825 -0.1076726 -0.031977154
-0.03093818 -0.06295437 -0.041809786 -0.10890684 -0.05639765 0.03539505 -0.03319342 -0.023651842
-0.10231785 0.06389225 -0.0982991 0.017152902 0.01538143 -0.083207265 -0.10825473 -0.029968696
0.0022004999 0.025973875 0.028079787 -0.019605149 0.039806418 -0.078860104 0.0536759 0.05540979
-0.06837621 -0.030476939 -0.07163827 -0.0629745 -0.05949193 -0.03384819 -0.13240501 -0.09185228
0.026220728 -0.015277136 -0.0351367 0.048744008 0.0077335234 -0.05900463 -0.09959356 -0.035379052
-0.08265257 0.029366404 -0.07845843 -0.057856284 0.015480724 0.011034306 0.03356451 -0.02878513
-0.018744905 -0.09664949 -0.06397536 -0.04905438 0.05003831 -0.033228487 0.006094602 -0.09209909
00000000: 2466 45bd bbd8 a8bd 47fe 5d3d 6928 06bd
00000010: d11f c2bc 4e2c 10be 8334 3a3d f057 65bd
00000020: badf 02bd 8dfa e43b f3c7 0e3d d06f 80bd
00000030: ee5a cd3c 6c1b 51bc 3291 113d 8dae b6bd
00000040: 4f1d c8bd 3811 3bbc 6a17 b0ba 5c73 8e3d
00000050: d729 d2bd 2e7b a8bc 6421 903c 5c64 9ebd
00000060: 9721 243d e008 70bc addc 49bd 9278 febc
00000070: bc47 6cbd ebb8 343d e0bb c03c 3c53 06bd
00000080: ff7b d53b c809 9d3c 8826 e63c f19d 85bc
00000090: 0922 fe3b ea21 9abd 5dc2 263c 3ff2 88bd
000000a0: 5fef a4bc 6b31 08be 417d 80bc 1459 f33b
000000b0: c2f8 49bd e49b 09bc 4273 073b d8cc 46bc
000000c0: b123 8ebd b22c aebc a59c 50bd 2650 c0bd
000000d0: 52f5 6abd 51c8 51bd 81c4 e7bd 068b b5bb
000000e0: 0c74 cfbd 6f53 50bd fa44 6cbc 0bbc 803d
000000f0: f1be cebc 3585 a5bd b509 63bc 8d7d ccbd
00000100: 22a9 42bd d047 c6bc 7d5b 1cbd 9a72 d33c
00000110: f35f a7bd c173 eebb 7483 dcbd 7afa 02bd
00000120: 1172 fdbc 39ee 80bd bd40 2bbd 8d0a dfbd
00000130: 3901 67bd 66fa 103d d3f5 07bd 82c1 c1bc
00000140: 058c d1bd f1d9 823d 0a51 c9bd 3e84 8c3c
00000150: 6502 7c3c 9268 aabd a8b4 ddbd e980 f5bc
00000160: 4336 103b 2ac7 d43c 9507 e63c fa9a a0bc
00000170: 0e0c 233d 6881 a1bd 43db 5b3d 60f5 623d
00000180: d408 8cbd c6aa f9bc 16b7 92bd c6f8 80bd
00000190: cfad 73bd 66a4 0abd 2e95 07be 0c1d bcbd
000001a0: dacc d63c f44c 7abc 80eb 0fbd cca7 473d
000001b0: 7f69 fd3b d7ae 71bd b5f7 cbbd a0e9 10bd
000001c0: c045 a9bd d091 f03c d0ae a0bd b6fa 6cbd
000001d0: dda2 7d3c 3cc9 343c f17a 093d cbce ebbc
000001e0: ea8e 99bc 2bf0 c5bd 8305 83bd 3fed 48bd
000001f0: f9f4 4c3d 981a 08bd 3ab5 c73b 739e bcbd
