models/sony_images/states/tf_export/g_conv3_2/weights.npy (npy, 589952 bytes, 1 tensors)

array f4 [3, 3, 128, 128]
000000 ff 93 eb bb d8 28 a8 3c 72 e6 cb bd 0a d8 69 bd
       -0.0071892734 0.020527288 -0.09956063 -0.057090797
000010 c4 52 60 3d 3c 67 55 3d 0a a7 ee bd 1c d3 69 bd
       0.05476643 0.052100405 -0.11652954 -0.057086095
000020 ee f3 41 bc 50 94 15 bd 3a cd 7c bd 4f 79 a0 bd
       -0.0118379425 -0.036518395 -0.061719157 -0.07835638
000030 55 fa c0 3d 08 eb 1d 3d 4d 0a 9d 3c 88 14 bf bd
       0.09422747 0.03855422 0.01916995 -0.09330088
000040 ea 5c 8d 3d d7 65 09 3d 64 5c a1 bc e3 52 0f bd
       0.069024876 0.033544388 -0.019697376 -0.034991156
000050 c8 31 b6 3d 9e cb 87 bd f0 7d d8 3d a9 11 85 3d
       0.08896214 -0.06630634 0.10570896 0.06497509
000060 fd 23 48 bd 3a ad 77 bd 8b 32 1c bd b7 b8 c3 bd
       -0.048862446 -0.060467936 -0.03813414 -0.09556716
000070 80 f9 22 3c c5 f5 da 3c 08 91 ac ba 2b 04 21 bd
       0.009947181 0.02672852 -0.0013165781 -0.039310616
000080 34 62 b2 3d 72 bb c5 bc e2 d6 db bd 11 8c 03 3d
       0.08710137 -0.024137232 -0.10734345 0.032116
000090 3e 11 d0 ba 4e e7 f8 3c 9c d1 31 3d b6 c2 f6 3c
       -0.0015874279 0.030383732 0.04341279 0.030122142
0000a0 8a 66 58 3d c7 a9 cd 3d b7 15 78 3d 0e d8 b1 bc
       0.052832164 0.10042148 0.060567584 -0.021709468
0000b0 66 00 13 3c b9 da 82 bc a9 d4 3e bd 7a c3 dd 3d
       0.008972263 -0.015973436 -0.046589527 0.108283
0000c0 22 d9 ab bd bf e8 19 bd b0 41 2f bd c2 fb ff 3b
       -0.08391024 -0.03757548 -0.042787254 0.0078119943
0000d0 7f 92 44 bd d4 78 04 be ed 9e ae 3d ec 60 a9 3d
       -0.047991272 -0.12936717 0.085264064 0.082704395
0000e0 46 33 cd bd 10 10 02 bc 67 35 ee bd ce 9d c4 bd
       -0.10019545 -0.0079384 -0.116312794 -0.09600411
0000f0 a6 27 8a bd 56 ac 96 3d f6 72 2b 3d 4b 2e 32 3d
       -0.067458436 0.07357089 0.041857682 0.04350118
000100 25 a1 39 bd ae a7 ce bd be 7f f4 bc 92 9c 50 3d
       -0.045319695 -0.10090576 -0.029846068 0.050930567
000110 a6 cf d5 3c a8 20 1b bd fd 19 c6 bd 87 d3 74 bd
       0.026099991 -0.03787294 -0.096729256 -0.05977204
000120 81 f0 ac 3c fd e7 9e 3c 6c fc cb ba d7 37 a9 bd
       0.021110775 0.01939773 -0.0015562898 -0.08262604
000130 4e b8 39 bd bb f3 d5 bc 45 0e 43 3d f0 88 a4 bd
       -0.045341782 -0.026117196 0.04762103 -0.08033931
000140 f7 91 97 bc 7b 72 9e 3d 5b 24 84 3c 8c c7 72 bd
       -0.018502219 0.07736679 0.016130617 -0.059272334
000150 f4 06 2d bd a3 f1 ad 3d 09 39 85 3d 9b da 9e 3d
       -0.04224296 0.08493354 0.06505019 0.077565394
000160 49 91 16 3d 93 4f c4 bb ca 9c d7 39 70 54 54 3d
       0.03675965 -0.0059909313 0.00041124813 0.05183834
000170 25 80 2f bd 5b 96 11 bd 46 aa 81 3d de bb 90 bd
       -0.042846818 -0.03554378 0.06331305 -0.07067083
000180 bd 7a 66 3d 9c 77 98 bc cd fe a7 3d 0a 19 40 bc
       0.056269396 -0.018611722 0.08202896 -0.01172472
000190 52 1a 56 3c 7c 65 bd bc 5b a1 02 3d d5 42 3d bd
       0.013067799 -0.02311968 0.03189216 -0.046206314
0001a0 54 02 a6 3d 7d e5 92 bd 40 e5 59 3d e9 97 89 3c
       0.08105913 -0.07172678 0.053197145 0.01679607
0001b0 fa 31 e1 bc 94 c4 34 3c 7c ce c6 bc 4f d2 c7 bc
       -0.027489651 0.011033196 -0.024268381 -0.024392275
0001c0 66 62 09 3d d3 79 28 3c 4d 57 9e 3c 4d a2 cc 3b
       0.033541106 0.010282951 0.019328738 0.0062449337
0001d0 08 76 c9 3d 19 2e c8 3d 50 f8 c9 bc 35 98 ed bc
       0.09836966 0.097744174 -0.024654537 -0.029003242
0001e0 b1 15 f3 3c ec a5 d6 3d 98 d6 88 3c 0f 98 c9 bd
       0.02967343 0.10480866 0.016703889 -0.09843456
0001f0 ea 00 9b 3c 1b 12 93 3d c0 c3 2c 3c 8b d1 3f 3d
       0.018921334 0.07181188 0.010544717 0.046830695
000200 38 26 8a bd bc c2 04 3d 34 7a 17 be b7 e2 b5 bc
       -0.06745571 0.032412276 -0.1479271 -0.022202833
000210 bb ab d3 3c 4c 3e c2 3d b3 a6 de bd 2b 23 24 bd
       0.025838723 0.094845384 -0.10871639 -0.0400726
000220 77 3e 28 bc af 12 d1 bd a2 0c 9b 3a 25 23 d0 bd
       -0.010268799 -0.10208642 0.0011829326 -0.10162953
000230 46 78 ab 3d c2 e7 80 3c ce 9f 3c bd 8b fb 4b 3c
       0.0837255 0.01573551 -0.04605084 0.012450109
000240 ad 43 50 3d 7e 88 5d bd dd 7a c6 3c 22 f5 ff bc
       0.05084579 -0.054085247 0.024228508 -0.031244818
000250 9a ca 5b 3b 55 fe c5 bc e6 44 b9 3d 89 c0 98 bd
       0.0033537508 -0.024169127 0.090463445 -0.07458598
000260 e2 d0 11 3d 17 9a 11 bd d9 48 45 bc f0 2b 19 3d
       0.035599597 -0.035547342 -0.012041294 0.037395418
000270 4f 77 36 bd 4c f7 07 bd 9e 67 a3 3c 45 83 de 3c
       -0.044547375 -0.033194825 0.01994687 0.027162204
000280 27 c9 1c be 61 d1 9e bd 90 db da bd 89 e5 15 3d
       -0.15311109 -0.077547796 -0.106864095 0.036595855
000290 d4 01 a7 bd 4e 47 16 be a1 be a8 3d ab 30 77 3c
       -0.081546456 -0.14675638 0.082394846 0.015087287
0002a0 f4 3e 3a bd c3 c6 3a bc 1d f7 af bc b7 b0 99 3d
       -0.045470193 -0.011399928 -0.021480137 0.07504409
0002b0 7b 49 02 bd 4f 46 95 bc 38 9a 3e 3c 84 bd 18 bc
       -0.031808358 -0.018222002 0.011633448 -0.009322528
0002c0 b4 7b a8 3d 64 0e 22 bd 82 5b a3 3d 98 71 8d 3c
       0.082267195 -0.039564505 0.07976438 0.01726608
0002d0 8e 25 5a 3a 7f 3f ea 3c ff 09 73 bd 4c f9 a1 bd
       0.0008321636 0.02859473 -0.059335705 -0.07908878
0002e0 ec 57 48 3a cb 63 26 be 22 7c 8c bb d7 81 da bc
       0.0007642496 -0.16249005 -0.0042872587 -0.02667324
0002f0 ea 3b 30 bd eb b2 d1 3d 40 2f 54 bd d3 5e 9e 3c
       -0.04302589 0.10239204 -0.051802874 0.019332325
000300 10 b0 73 bd 26 00 7d bc b7 f2 64 3d 5f 3b 94 bd
       -0.05949408 -0.01544193 0.055895533 -0.07237887
000310 ab 14 3c bd 7c 15 f1 bd 8b c5 45 bc 70 d1 29 3d
       -0.045918148 -0.11771676 -0.012071024 0.0414595
000320 9e bd 3c 3d 7d 81 9e 3d 0d 08 ab 3d 73 ea 8f bb
       0.04607927 0.07739542 0.08351145 -0.004391962
000330 18 0d 0a 3e fc ec f6 bc 5a f7 5a 3d 16 dc a7 bc
       0.13481557 -0.0301423 0.05345855 -0.020490687
000340 5b 9a b1 3d 46 0a 0f be b0 b2 97 3c 79 57 da 3c
       0.08672019 -0.13968763 0.018517822 0.026653038
000350 60 56 b7 3d 74 07 58 bc f4 32 8e 3d 64 87 33 3d
       0.089520216 -0.013185371 0.06943312 0.04383029
000360 a4 83 03 3e 49 82 13 3c 55 56 52 3d 2d 25 7c 3d
       0.12843186 0.00900323 0.051351864 0.06155889
000370 2f 71 0c be 44 19 b1 3c 71 33 55 bb 0d 64 b8 bb
       -0.13715051 0.021618493 -0.0032531882 -0.0056271614
000380 3e 9f 81 bb 36 b9 1d bd a4 ef 03 be 0c 79 58 bd
       -0.0039557507 -0.03850671 -0.12884384 -0.052849814
000390 cc 94 a0 3d 01 65 0d bd ad e3 ef bc 8c fd 9d bc
       0.07840881 -0.034520153 -0.029283369 -0.01928594
0003a0 f0 92 13 bc b0 f0 78 bd e3 d9 83 bd 10 86 24 bd
       -0.009007201 -0.060776412 -0.06438043 -0.040166914
0003b0 b7 2a 42 bd b2 1e a2 3c 6a 6f 7f 3c dc f8 c3 bd
       -0.047404017 0.019790027 0.015590528 -0.095689505
0003c0 39 71 84 bc 6b b6 bf 3d b5 9b a6 3d ba 99 fb bc
       -0.01616727 0.09360965 0.081351675 -0.030712951
0003d0 79 c9 d8 3d 0d e9 78 3d a1 ac b2 ba e9 7c 07 be
       0.10585303 0.06076913 -0.001363177 -0.13231243
0003e0 69 00 27 3d 15 9d 03 3d ea 55 16 bc 34 d3 9b bc
       0.040771876 0.032132227 -0.009175757 -0.019021608
0003f0 2e c6 d5 3d 55 03 19 3c a1 b1 c3 bc bc 1b cd 3d
       0.104381904 0.009339173 -0.023888411 0.100150555
