models/sony_images/states/tf_export/g_conv5_2/biases.npy (npy, 2176 bytes, 1 tensors)

array f4 [512]
000000 20 bc 7c bd 30 18 03 bd a9 1a 22 3d 16 c2 1e bd
       -0.061702847 -0.03200549 0.039576206 -0.038759314
000010 a8 ed e3 bd 3d c8 23 3d 9b 80 73 bd d8 1d 48 3d
       -0.11129314 0.039985884 -0.05944882 0.048856586
000020 1b 1d c4 bd 36 6a ed bd 5c 4f e0 3c b5 59 46 be
       -0.09575864 -0.11592524 0.027381591 -0.19370158
000030 de 79 65 bd e0 fb a2 bd 93 04 0c be d1 3e 81 bd
       -0.056024425 -0.079581976 -0.1367362 -0.063108094
000040 a3 2b 74 3d 42 c3 d9 bd d4 cf ce bd fe 34 31 3e
       0.059611928 -0.106329456 -0.10098234 0.17305371
000050 1b a7 87 bd ab 4f 85 bd fc 08 37 bd 7a 24 c4 bc
       -0.0662367 -0.06509336 -0.044686303 -0.023943175
000060 32 01 d2 bd 28 79 14 be ed 3e a0 bd 15 c9 0e be
       -0.10254134 -0.14499342 -0.07824502 -0.13943894
000070 1f ed 0d be 36 e4 1e 3d 5d d0 e3 bd eb bf 02 3d
       -0.13859986 0.038791858 -0.111237265 0.03192131
000080 90 14 93 bd ae 8c 8e 3d 1c 67 93 bd 6d 46 24 bd
       -0.07181656 0.06960426 -0.07197401 -0.040106226
000090 5f 8f 42 bd 95 82 2e bc 9b c0 29 3a 06 64 0c 3c
       -0.04750001 -0.01065125 0.0006475539 0.008568769
0000a0 e4 14 a9 bd 7d 29 b2 bc be f0 6a bc d8 42 11 be
       -0.08255938 -0.021748299 -0.014339624 -0.14185655
0000b0 aa 9d 24 be ff 5a 94 3b 60 25 9e 3d e3 0a b4 bd
       -0.16075769 0.004527449 0.077219725 -0.08791139
0000c0 9d 4b a5 3c c2 79 82 bd ad 3e 6d bc 44 6b 0c be
       0.020177657 -0.0637088 -0.014480275 -0.13712794
0000d0 e0 00 ae bd f1 ed ce 3c 24 17 e0 3d 73 16 41 bd
       -0.08496261 0.025259944 0.10941914 -0.04714055
0000e0 4a ac d5 bc a6 1e cf bd 1e 05 b1 b9 ee 57 20 be
       -0.02608313 -0.101132676 -0.00033763883 -0.15658543
0000f0 5f bb b7 bd 4f 49 36 be 46 cf 73 be fb 13 5b bb
       -0.08971285 -0.17801403 -0.23809537 -0.0033428657
000100 0e a5 40 bd 74 a3 a0 bb 5a 10 15 be 40 04 21 3c
       -0.04703241 -0.0049022976 -0.14557019 0.009827673
000110 8e f1 6f bd 97 c8 b4 bd 5b 5a ec bc d4 85 52 3d
       -0.058579974 -0.08827322 -0.028851679 0.05139716
000120 13 61 14 be 53 7a 68 3d 56 3e 49 be 96 bf 63 be
       -0.14490156 0.056757282 -0.19652686 -0.22241053
000130 12 f4 cc bd fe 80 3c be 69 05 e3 bd 44 02 87 bd
       -0.1000749 -0.18408582 -0.11085016 -0.06592229
000140 5d 5c 34 be c2 fb c7 bc 79 66 1e bd f5 da 2c 3d
       -0.17613359 -0.02441204 -0.038671944 0.042201
000150 cd c5 a5 3c c7 b0 4f be 1c 8f fe bd a2 da 65 bd
       0.02023592 -0.20282279 -0.1242964 -0.056116708
000160 a6 0f 7c bd 07 6c 95 bd 5f 2c 20 be 0e c4 e1 3d
       -0.06153836 -0.07295995 -0.15641926 0.110237226
000170 40 05 49 bd 92 a8 ba 3d 90 cc 66 be a7 4f 28 be
       -0.049077272 0.091141835 -0.22538972 -0.16436635
000180 4a fb f4 bc 10 50 00 3c 93 17 62 bd a4 53 ae bd
       -0.02990498 0.007831588 -0.055198263 -0.08512047
000190 7d 77 6a 3c 8d 44 a1 3b f7 c1 8b bc 3f 71 f4 3b
       0.014310715 0.004921502 -0.017060263 0.007459789
0001a0 b8 35 a3 3d 63 9a d3 bd ae 91 0a 3e c7 15 cf 3c
       0.079692304 -0.10332181 0.13532135 0.025278939
0001b0 18 18 06 be 9d be 71 be 6e 5b 5c 3d 0a fc b7 3d
       -0.13095129 -0.2360787 0.05379813 0.089836195
0001c0 ef b8 37 bd 8c b4 d9 bc a7 26 51 3d 25 b5 98 bc
       -0.0448541 -0.02657535 0.051062252 -0.018641064
0001d0 2e d9 05 3e 5b 42 e0 bc 9e be e6 3b c9 84 1b be
       0.13071129 -0.02737539 0.0070417663 -0.15187372
0001e0 ab 2d 38 3d d7 f9 01 be 9c 8c b9 3d cf 62 61 3e
       0.044965427 -0.12692963 0.09060022 0.22010349
0001f0 23 d0 fe bd dd eb 23 bd c9 59 97 3a d0 21 bf bd
       -0.12442043 -0.04001986 0.0011547144 -0.09332621
000200 4b d0 38 be dd 13 d9 bd 09 f8 ec bd f2 da 5c 3c
       -0.18048207 -0.10599492 -0.115707465 0.013479935
000210 aa 66 88 3d 76 0d 15 3b ac 20 8e bd 45 83 b6 bc
       0.066602066 0.002274362 -0.069398254 -0.022279391
000220 98 24 6d bc d8 5b 22 be 6d 71 80 be fd b9 83 bd
       -0.014474057 -0.15855348 -0.25086537 -0.06431959
000230 04 6c f0 3d 1b 6f 8c 3c 2b 14 9e bc 54 36 e9 bd
       0.11739352 0.017142823 -0.019296726 -0.113873154
000240 0f fe 17 bd b3 2a e5 bd 3b 62 3d bd ac 9b a0 be
       -0.037107524 -0.11189785 -0.046236258 -0.31368768
000250 4c 31 ec bc f2 df 9c bd 45 c5 a5 3d 4e 10 86 bd
       -0.0288321 -0.07659902 0.08094267 -0.065460786
000260 21 82 ee bc dd 03 a0 bd 85 53 ae bd 12 8e 9a bd
       -0.029114785 -0.07813237 -0.08512024 -0.07546629
000270 23 27 80 3d 87 fd 27 3c e6 74 44 bc 66 71 98 bd
       0.06257465 0.010253317 -0.011990761 -0.07443504
000280 bd e8 b8 bd d4 72 ec 3d 1c dd d7 3d f4 78 b4 bd
       -0.09028766 0.11545339 0.1054022 -0.088121325
000290 1c 16 ed 3c cc ad 2e be 9a 0b 68 be d1 31 f7 bc
       0.028941207 -0.17058486 -0.22660676 -0.030175122
0002a0 e5 e3 e2 bc 41 6e 00 3e 2d b5 ea bd f4 d1 1a be
       -0.02769656 0.12542059 -0.11460338 -0.15119153
0002b0 59 0e 3e 3d da 23 a9 3c 2b d4 a4 3d 19 3e a2 bc
       0.0464004 0.020646978 0.0804828 -0.019805001
0002c0 06 2b 91 be d0 97 3f bc 20 f6 1a be 84 09 25 be
       -0.28353137 -0.01169391 -0.15132952 -0.16116911
0002d0 b6 31 ca 3d 38 10 90 bd 48 9a 11 3d d1 8b bc bc
       0.09872763 -0.070343435 0.035547525 -0.023015888
0002e0 54 eb c0 3c 86 78 20 be 5a 91 15 3d de ca 62 bd
       0.023549713 -0.15670976 0.03651557 -0.05536925
0002f0 31 09 00 3c d3 ff 9d bd 7d 27 79 bd 53 ec 29 be
       0.007814691 -0.0771481 -0.060828675 -0.16594057
000300 a3 ef 2e bd 28 ad 97 bd c7 6b 73 be 36 66 c4 bd
       -0.042709004 -0.07406074 -0.23771583 -0.09589808
000310 f6 5f 35 3c c5 69 96 bd 8f 22 f3 3c 39 6d f6 bd
       0.011070242 -0.07344393 0.029679565 -0.12032551
000320 b8 5d dc 3d ab dc 88 bb c9 24 5f be 62 c3 53 3d
       0.10760063 -0.0041766963 -0.21791376 0.051700003
000330 9b 02 93 3d c5 9f ef 3c 9d c7 c7 bd 98 87 b3 3d
       0.07178231 0.029250989 -0.0975487 0.08766097
000340 c0 10 27 3d 63 05 fb 3b a7 27 07 3c 62 3f 1b bd
       0.04078746 0.0076605543 0.0082492 -0.037902243
000350 5d 22 59 3b dd ad e0 bd 3a 39 26 3d 75 9a be bd
       0.0033132054 -0.10970662 0.04058192 -0.09306804
000360 d6 c1 21 bd 24 48 ac bc 4d 5f b0 3d 2a d6 2b 3d
       -0.039491497 -0.021030493 0.08611927 0.04195229
000370 73 f2 c5 bd 16 e1 3a be e6 0c 9e bd 56 42 8e bd
       -0.09665384 -0.18249926 -0.07717304 -0.06946246
000380 b4 25 e8 bc 6b 7e 17 be 1a a0 f8 bc 19 ad 28 3c
       -0.02833829 -0.14794318 -0.03034978 0.010295176
000390 79 cd 5e 3d bb 8a 19 ba 8e 45 4d bd ce ba 20 be
       0.054395173 -0.0005857159 -0.05011516 -0.1569626
0003a0 3f 75 90 bc 0d 7a 8a 3d d7 0c c2 3b 38 79 21 3c
       -0.017634032 0.067615606 0.005921941 0.009855561
0003b0 29 b0 78 be 98 d6 59 be 06 ca cd bd 1b 19 c0 bb
       -0.2428595 -0.21273267 -0.100482985 -0.005862368
0003c0 f1 ca 58 bd 8e 6b d6 bd cc 19 12 be c6 d6 70 bd
       -0.052927915 -0.10469733 -0.14267653 -0.058798574
0003d0 38 c3 29 be 0a 22 ac bd 1d 78 0c be 1a 61 d8 3d
       -0.16578376 -0.0840493 -0.13717695 0.10565396
0003e0 21 30 d7 3d 63 d8 85 be 06 9e ac bd c6 1f 89 3c
       0.10507227 -0.26141652 -0.08428578 0.016738784
0003f0 35 49 41 bd f5 31 2f be cd 8a cc bd d7 eb ec bd
       -0.047188956 -0.17108901 -0.09987412 -0.115684204
