models/sony_images/states/tf_export/g_conv8_1/weights.npy (npy, 295040 bytes, 1 tensors)

array f4 [3, 3, 128, 64]
0.0050848285 -0.0011760232 0.024499347 0.05159317 -0.035796165 0.030474389 -0.016432887 -0.016033497
0.0001715144 -0.021062203 -0.06047739 -0.030852951 -0.0042165215 0.008855466 0.072268575 0.050954964
0.014915547 -0.0061886683 -0.056761295 0.010153485 -0.0056998758 0.014171511 0.021975072 0.026904758
-0.072525024 0.0048488015 -0.06886343 0.072446726 0.04530772 -0.0178851 -0.055304706 0.0007686708
0.038715098 0.0077894847 -0.02285253 -0.05480307 0.07335792 0.0012174216 -0.037130363 -0.053342365
0.009665617 0.0065210806 -0.044749163 -0.025990102 -0.04127613 0.010353463 0.028252322 -0.07376651
-0.053246874 -0.019562544 -0.032606672 -0.008310225 -0.028873224 -0.025507035 -0.008305058 -0.09706696
0.056427825 -0.006629736 0.04820963 0.004662458 -0.016585702 -0.033726964 -0.091036566 0.031642795
-0.014819506 0.020302558 -0.023290576 -0.020689601 -0.027323922 0.019076735 0.016575627 -0.004597039
0.030001188 0.0054564406 0.0055267713 0.032524332 -0.06702278 0.07385034 -0.025959888 -0.009689036
0.030074343 -0.048710853 0.08576437 -0.020840222 -0.041680425 -0.065538295 0.025642531 -0.06739941
-0.04382826 -0.0061039915 0.0052365223 -0.05766493 0.029359233 -0.0064009377 -0.014202386 0.038485795
-0.018609002 0.017447328 -0.023475388 -0.050632022 0.014954955 -0.007918939 0.036437534 0.01629395
-0.041337494 -0.04773959 -0.010417094 -0.061924774 -0.031166645 -0.06491835 0.034317218 0.022933077
-0.0545851 -0.038552705 0.012832719 0.007098731 -0.013919189 -0.09768803 0.0018943207 -0.08808162
-0.05287871 -0.0637858 0.04438449 0.04464612 -0.02437807 0.049507886 -0.012025043 0.011784235
0.018786304 -0.02831224 0.06750065 0.007235354 -0.026617525 -0.03360794 0.010560103 -0.017784463
0.028534347 0.010326872 0.011053895 0.050275125 -0.03833528 -0.0633599 -0.021686668 0.0036105209
0.015072598 0.004308346 0.03998045 -0.0060661244 0.037057005 0.051269654 -0.0059437263 0.0010487222
-0.04207471 -0.021691514 0.019910121 -0.027711373 -0.005248236 0.016959164 -0.055044197 0.06756226
0.039793737 -0.025282206 -0.061849218 -0.034799594 -0.0146691175 0.04497384 0.0029479773 0.028861774
0.05173651 -0.0076489183 -0.0475097 -0.0028340544 -0.019150035 -0.032051638 -0.010487425 -0.0587794
-0.068488866 0.06734018 0.010492897 0.0052298126 0.0726102 -0.0015129487 0.05126121 -0.09142654
-0.07012326 0.004869565 -0.0047950204 -0.020127404 -0.011831977 0.06787423 -0.0029308125 -0.010435083
0.023686267 -0.018345872 0.0305473 0.07525784 0.025111008 0.048597515 0.0023226899 -0.06958831
0.03425487 0.015008406 -0.024712123 0.044536024 0.06979723 0.014284568 -0.03282518 0.030262109
-0.004523299 0.003625845 0.054665674 0.061802126 0.049020924 0.031593073 0.03166622 0.09101068
-0.00066649495 -0.022654751 0.07234959 0.077138245 -0.004702748 0.0899867 0.07873819 0.054071426
0.010150015 -0.09433649 0.023705034 0.025056275 0.01760335 -0.0062120245 -0.013407384 0.050525002
-0.0334373 -0.013088399 0.08870648 0.04547659 -0.03027267 0.03450326 -0.044287294 0.013741827
0.07533317 0.09574733 0.034995545 0.012040839 -0.02112599 -0.008206183 0.030661568 0.036410432
0.04128966 0.044564452 0.013594549 0.04473341 -0.07098033 0.019895887 0.029772133 0.009348285
00000000: a29e a63b ca24 9aba dbb2 c83c 5c53 533d
00000010: 009f 12bd 6da5 f93c 439e 86bc ae58 83bc
00000020: 8cd8 3339 a48a acbc 24b7 77bd 54bf fcbc
00000030: bf2a 8abb 8416 113c 8c01 943d 27b6 503d
00000040: 5760 743c 50ca cabb 887e 68bd ce5a 263c
00000050: 06c6 babb a02f 683c 1105 b43c 5e67 dc3c
00000060: 0088 94bd b2e2 9e3b 4508 8dbd f35e 943d
00000070: 9694 393d c683 92bc 3087 62bd a080 493a
00000080: b993 1e3d ef3e ff3b 3b35 bbbc 2f79 60bd
00000090: ad3c 963d e491 9f3a 0216 18bd 867d 5abd
000000a0: 895c 1e3c caae d53b e64a 37bd 32e9 d4bc
000000b0: 2911 29bd 92a1 293c 6a71 e73c e512 97bd
000000c0: 6519 5abd a141 a0bc 938e 05bd 9c27 08bc
000000d0: 8a87 ecbc 21f4 d0bc f011 08bc 0bcb c6bd
000000e0: dd20 673d 423e d9bb 7677 453d 88c7 983b
000000f0: bdde 87bc 4925 0abd 6171 babd e09b 013d
00000100: 83cd 72bc 8d51 a63c e1cb bebc 3d7d a9bc
00000110: 6bd6 dfbc d046 9c3c 9cc9 873c c2a2 96bb
00000120: 0dc5 f53c f1cb b23b eb19 b53b 3c38 053d
00000130: 3d43 89bd d93e 973d d5a9 d4bc c3be 1ebc
00000140: 785e f63c 0885 47bd 3ba5 af3d 1db9 aabc
00000150: 18b9 2abd f138 86bd 4910 d23c b408 8abd
00000160: 4385 33bd fe03 c8bb 2297 ab3b 1032 6cbd
00000170: c682 f03c f5be d1bb 20b1 68bc 48a3 1d3d
00000180: e871 98bc b3ed 8e3c 754f c0bc 8663 4fbd
00000190: a105 753c 70be 01bc 863f 153d e47a 853c
000001a0: 8151 29bd 978a 43bd 76ac 2abc d5a4 7dbd
000001b0: 3151 ffbc e9f3 84bd 3690 0c3d 26de bb3c
000001c0: a094 5fbd 71e9 1dbd 5340 523c 799c e83b
000001d0: 4f0d 64bc a910 c8bd db4a f83a 2364 b4bd
000001e0: 5997 58bd 21a2 82bd 83cc 353d dade 363d
000001f0: 85b4 c7bc c8c8 4a3d b004 45bc aa12 413c
00000200: bce5 993c 12ef e7bc c83d 8a3d 8c16 ed3b
00000210: ff0c dabc 7ba8 09bd 4804 2d3c b9b0 91bc
00000220: ddc0 e93c 0a32 293c 651b 353c 4aed 4d3d
00000230: 7405 1dbd d6c2 81bd 3da8 b1bc 7d9e 6c3b
00000240: 0ff3 763c 072d 8d3b 8ac2 233d 57c6 c6bb
00000250: 16c9 173d 2100 523d 97c3 c2bb 4775 893a
00000260: 8856 2cbd 67b2 b1bc 8d1a a33c f602 e3bc
00000270: 65f9 abbb f2ed 8a3c 0676 61bd 155e 8a3d
00000280: c2fe 223d a11c cfbc 9b55 7dbd 058a 0ebd
00000290: bd56 70bc 7d36 383d da32 413b 876f ec3c
000002a0: aae9 533d c7a3 fabb 8899 42bd 8bbb 39bb
000002b0: 89e0 9cbc 9448 03bd 73d3 2bbc abc2 70bd
000002c0: e443 8cbd a6e9 893d 66ea 2b3c d95e ab3b
000002d0: a8b4 943d 224e c6ba 46f7 513d d63d bbbd
000002e0: c99c 8fbd df90 9f3b 8c1f 9dbb 3ae2 a4bc
000002f0: e9da 41bc a501 8b3d e012 40bb e9f7 2abc
00000300: b409 c23c 154a 96bc 553e fa3c c820 9a3d
00000310: 9ab5 cd3c 300e 473d 4538 183b 5184 8ebd
00000320: d64e 0c3d d1e5 753c 1471 cabc 686b 363d
00000330: daf1 8e3d d209 6a3c b273 06bd 3ee8 f73c
00000340: 2f38 94bb 969f 6d3b 1de9 5f3d 3a24 7d3d
00000350: 2aca 483d bd67 013d 70b4 013d cf63 ba3d
00000360: b8b7 2eba 7596 b9bc 062c 943d a8fa 9d3d
00000370: 8219 9abb f24a b83d 7d41 a13d 007a 5d3d
00000380: 404c 263c 7d33 c1bd 0f31 c23c d142 cd3c
00000390: e734 903c 3d8e cbbb a5aa 5bbc 4ef3 4e3d
000003a0: 8df5 08bd b970 56bc beab b53d a945 3a3d
000003b0: 64fe f7bc 4a53 0d3d 9866 35bd 6625 613c
000003c0: 4748 9a3d 2d17 c43d 7d57 0f3d f046 453c
000003d0: 6a10 adbc 3a73 06bc f82d fb3c 1b23 153d
000003e0: 591f 293d 3789 363d acbb 5e3c 613a 373d
000003f0: 235e 91bd b3fc a23c b0e4 f33c 8d29 193c
