models/sony_images/states/tf_export/g_conv9_1/weights.npy (npy, 73856 bytes, 1 tensors)

array f4 [3, 3, 64, 32]
000000 30 64 cc 3b 13 3e 32 3d 8f 4b 73 bd 1c f4 1a bd
       0.006237529 0.04351623 -0.05939823 -0.037830457
000010 41 f7 65 3d 17 67 a6 bd 25 bc 5a 3d 67 4e 5c bb
       0.056144003 -0.081251316 0.053402085 -0.0033616067
000020 f8 73 49 3b 1e 08 e1 3b a1 e4 51 3c 34 ac b1 3c
       0.0030739289 0.0068674227 0.012810857 0.021688558
000030 0d 99 cc bb 9d b4 5f bc e1 33 3d 3d 03 41 1f 3a
       -0.006243831 -0.013653901 0.046192054 0.0006075056
000040 f4 da 33 bd e8 cd c7 3c 11 c4 18 bb 77 aa 14 3c
       -0.04390998 0.024390176 -0.0023310224 0.009073845
000050 82 d4 0e bd 19 34 a2 bd 04 c0 22 bc d7 ea 4d bc
       -0.034870632 -0.07920093 -0.009933475 -0.012568197
000060 4d fc bc 3c 20 58 a7 bb 75 3c 8a bb 81 ca 08 3c
       0.023069525 -0.005106941 -0.004218633 0.008349062
000070 98 d0 ac bc c7 19 db bd 05 b6 0d bd 3f 2a 28 3c
       -0.021095559 -0.10698276 -0.034597415 0.0102639785
000080 1c f6 76 3c 68 56 54 3b 97 1b 4e bd 10 44 cf 3b
       0.0150733255 0.0032400135 -0.05031928 0.0063252524
000090 2a af 7c bd af dd 8e bb a9 8a 9f 3d a1 58 b3 bc
       -0.061690487 -0.004359923 0.07790119 -0.021892847
0000a0 65 b9 99 ba d2 10 a3 bd c5 d3 46 3d c4 cd 5d 3c
       -0.0011728226 -0.079621926 0.048541803 0.013537828
0000b0 f3 c4 e4 3c 7e cf b4 bd 5b 14 f1 bc 5f f1 46 bd
       0.027925944 -0.088286385 -0.029428652 -0.048570033
0000c0 d0 73 0c 3c cb df 82 3c a7 31 56 3d 5c 00 75 bc
       0.008572534 0.015975853 0.052293446 -0.014953699
0000d0 07 1d 7c bc ec 06 84 3d 34 c2 82 bd a7 10 a0 bd
       -0.01538778 0.06446633 -0.063846976 -0.07815676
0000e0 d7 ca 68 bd 67 f4 3d 3d 82 12 dc 3b f9 5b 0e 3d
       -0.05683407 0.04637566 0.0067160735 0.03475568
0000f0 14 7c bd bd d3 57 13 3d 0b 92 0d bc 49 78 1e bd
       -0.09252182 0.035972428 -0.008640776 -0.03868893
000100 8c b7 39 3a 41 fb a4 bd ca bf 7d 3c 45 7b 36 3d
       0.00070845406 -0.080557354 0.015487621 0.044551153
000110 ba fb c8 3d 53 90 a9 bd cd 68 ce bc a3 50 43 bd
       0.09813638 -0.08279481 -0.025196457 -0.047684323
000120 3f d6 33 bb a1 0a 4d bd f1 77 1b 3b c6 27 1c 3d
       -0.0027440933 -0.050058965 0.0023722614 0.03812387
000130 84 d2 45 3d 9f 83 8c 3c 12 de 32 3c 0d ac 7b bc
       0.048296466 0.017152606 0.0109172035 -0.015360844
000140 43 56 2c 3d f4 9c fc bc 6f 71 13 bc 26 aa 90 bc
       0.042074453 -0.03083656 -0.008999213 -0.017659258
000150 61 00 1b 3d 0a cf df bd 48 c5 44 bd ab 88 ab 3d
       0.03784216 -0.109281614 -0.048039705 0.08375677
000160 15 19 de bc 35 2a 89 3d f8 1d e0 3c 7f b5 6b bd
       -0.02711157 0.066975035 0.02735804 -0.057546135
000170 ee 06 c0 bc 7a 3a 91 bc 52 1d 6d 3d a4 44 e4 bc
       -0.023440804 -0.01772808 0.05788929 -0.027864762
000180 d9 b3 cb bc 7d 0c 41 bd d5 d3 ff bc f3 23 11 3d
       -0.024866031 -0.04713105 -0.03122894 0.035434674
000190 f8 fa 9d bd 5c 70 db 3c 75 f9 1e 3d 1a a4 4d 3d
       -0.07713884 0.026786976 0.03881212 0.050205328
0001a0 26 39 5f 3d 53 28 73 bc fc 04 89 3c 2b 2e 10 bd
       0.05449786 -0.014841157 0.01672601 -0.03520028
0001b0 1f e8 08 bd 90 4e 68 3c 33 f2 54 bd b8 53 15 3d
       -0.033424493 0.014178887 -0.05198879 0.036456794
0001c0 19 f1 28 bd ec 7d 4a 3d ec b6 18 3c ba 46 08 3d
       -0.041245554 0.049436495 0.009320956 0.033270575
0001d0 4f 62 5f 3d d7 fe fe 3c 7e c6 47 bc 29 14 95 3d
       0.054537114 0.031127376 -0.01219332 0.07279236
0001e0 52 8d 0f bc 06 ca b3 3c fc 1e 0f 3d 6f 30 cd bc
       -0.008761721 0.021946918 0.03494166 -0.025047509
0001f0 03 72 cc bc 0a bd 87 bc e6 3d e2 bc fc e2 9f 3d
       -0.024956709 -0.016569633 -0.027617406 0.07806966
000200 a2 89 93 bc 07 45 03 bd 63 2c 1e 3c eb 11 a5 3d
       -0.018009964 -0.03204825 0.009654137 0.08060058
000210 a3 85 ac bc 8f e6 17 bd be 57 57 3d 72 5a 04 bd
       -0.021059817 -0.037085112 0.05257391 -0.032312818
000220 0b 43 8a bd bb 42 37 bd 04 2f a8 bc 3b 18 67 bc
       -0.06751069 -0.044741374 -0.020530231 -0.014104898
000230 91 ad b9 bc 9e 9c af 3d e1 22 5e 3b 02 83 d6 bc
       -0.02266577 0.08574794 0.0033895301 -0.026185516
000240 62 90 36 3d 85 c8 c4 bc 4e e6 3a 3c 8b 9c 8c bc
       0.044571288 -0.024021396 0.011407448 -0.01716449
000250 d3 d8 7c 3d 04 52 c3 3c 8f 75 63 3c 33 f9 bb 3d
       0.061730217 0.023842819 0.013883009 0.0917839
000260 65 29 5c 3c a9 29 1a 3c e8 27 45 3d bf dd 00 3d
       0.013437604 0.009409347 0.04813376 0.031461474
000270 3a fd 17 3d f6 dc 71 3c 66 cc aa 3c 98 bb c8 3b
       0.03710673 0.014762154 0.020849418 0.0061258785
000280 fe 56 26 3c 8e 8c 9c bc 61 69 50 3b 6e cd 0f 3d
       0.0101525765 -0.01910999 0.0031801092 0.035108022
000290 1b bb 87 bc 52 b9 26 bd 9f fb 5e 3d 79 da 2e 3c
       -0.016568711 -0.04070408 0.054439183 0.010672205
0002a0 8b 27 c6 3b 20 da 53 3c 2b 2b 11 bb 31 cb bd bc
       0.0060471944 0.012930423 -0.0022150974 -0.023168178
0002b0 a4 d7 01 bb ca aa 80 3c 06 12 72 bd 52 19 90 bd
       -0.001981237 0.015706439 -0.05909922 -0.070360795
0002c0 42 57 dc bc 33 f4 82 bd d9 bd 09 bd 6f c5 97 3d
       -0.026897077 -0.063942336 -0.03362832 0.07410704
0002d0 f7 22 46 3d 28 86 d0 bd bc 46 a4 3d 63 4a 6e bb
       0.04837319 -0.10181838 0.08021304 -0.0036360256
0002e0 42 79 70 bd 37 33 7a bd cb 5e 33 bd 2b 12 01 bd
       -0.05870939 -0.061084 -0.043791573 -0.031511467
0002f0 c2 be 00 3d 4c 1b dd 3c d6 66 1b 3d 34 f8 d1 3c
       0.03143192 0.026990555 0.03793987 0.025631048
000300 f6 b3 b2 bd 96 ae c2 3c ab ef 68 3c 02 f5 12 bd
       -0.08725731 0.02376489 0.014217298 -0.03587819
000310 7a b8 fb 3c 5e 1c a2 bd a7 36 1a bd 80 7e 63 bd
       0.030727614 -0.07915567 -0.037649777 -0.05554056
000320 ae 5b 9c 3c 6e c3 05 3d 1a 30 fb bc 81 ac 7a 3d
       0.019086685 0.03265708 -0.030662585 0.06119967
000330 e7 73 ac bb 05 e9 44 3c 1d 9a aa bc a6 9b 4d 3c
       -0.00526284 0.012018447 -0.02082544 0.0125493165
000340 64 1b 84 bd 2d f7 21 bb 35 d5 64 bd 86 89 3d 3d
       -0.06450537 -0.0024713979 -0.055867393 0.04627373
000350 23 89 51 3c db d6 5b bd a1 58 7b 3c 26 cd d3 ba
       0.012789044 -0.0536717 0.015340955 -0.0016159161
000360 30 b2 1f 3c 6a 2a fb 3b 71 e7 ab bb cf 3f 65 bc
       0.009747073 0.0076649683 -0.005246096 -0.013992264
000370 8f 27 82 3c db 50 b7 bc df ab 44 3c 88 bd db 3c
       0.015888004 -0.022377422 0.012003868 0.026823774
000380 a0 df 5a bc 94 ef 0c bc 44 d6 c8 3b 44 ed 47 3d
       -0.01335898 -0.008602042 0.006129058 0.04881026
000390 90 5a a1 3b 4c df ae 3c 88 44 18 bc b8 ac 82 3d
       0.004924126 0.02134671 -0.009293683 0.063806
0003a0 66 40 81 ba ff 74 ef 3b 0f b7 00 bc 2f fe 3c bd
       -0.0009861111 0.007307648 -0.007856145 -0.046140846
0003b0 fd f0 07 3d b0 05 8b bc 20 49 73 bd 88 6e 1e bb
       0.03318881 -0.016970485 -0.05939591 -0.0024174768
0003c0 6c e8 d2 bc 16 e9 53 bd 9a 40 23 3d 78 bc eb 3c
       -0.025745593 -0.05173596 0.03985653 0.028776392
0003d0 48 05 84 3d f5 53 a2 bc 9f 9a 3e 3d 82 13 05 bd
       0.0644632 -0.019815424 0.046534177 -0.032489307
0003e0 af 9a 2c 3c 32 88 6f bd 3f e9 07 3d 82 04 d4 3d
       0.010534926 -0.058479495 0.033181425 0.10352422
0003f0 88 62 6e bc bd a6 a9 3c c5 85 11 bd c5 df b3 bc
       -0.014549859 0.02070939 -0.035527963 -0.021957288
