models/sony_images/states/tf_export/g_conv3_1/biases.npy (npy, 640 bytes, 1 tensors)

array f4 [128]
-0.050425455 -0.016177773 -0.0024267805 0.007014536 -0.0054548434 0.038476013 -0.044044375 0.025901627
0.019721547 0.0044575245 0.0078526065 -0.042640693 -0.0653571 -0.006213906 0.009004203 -0.020202743
-0.052552976 0.021114225 -0.03996587 0.024144135 0.010293281 -0.008822982 -0.0185062 0.05004873
-0.0079865 -0.028637508 -0.0669337 0.015047021 0.03397261 -0.05580523 -0.02311323 0.019061588
-0.057530947 -0.06723156 -0.08339558 0.03636485 -0.05883398 -0.0009096591 -0.08584924 0.025480203
-0.049538996 -0.05420438 -0.024521766 -0.06437095 -0.015940832 -0.049022205 -0.026095195 0.012302132
-0.031806484 0.0052802176 -0.0047604716 0.0009955387 -0.10366254 -0.03414697 -0.036870915 -0.032678347
-0.023105899 -0.05359143 -0.027769478 0.07502271 -0.022334544 -0.07825772 -0.066608764 -0.019629221
-0.059842363 0.022661105 0.04920225 -0.036032535 0.027217126 0.008981583 0.0398637 -0.04419552
-0.010268468 -0.046994295 -0.10610933 0.005336244 -0.06892081 -0.064344905 -0.104584396 -0.05550118
0.0051307757 -0.006033151 -0.016617615 0.002574783 -0.025749292 -0.10663996 0.05702645 -0.046124883
-0.10117745 -0.057919905 -0.0212744 -0.024964366 -0.09229925 0.0610343 -0.017371891 0.05130614
-0.06721318 -0.042478424 -0.011536026 0.0013288598 -0.05590636 -0.044846855 0.08167142 -0.060376953
-0.030588696 -0.03314839 0.017184181 -0.024516242 -0.014343071 -0.05947069 -0.06819804 -0.05679452
-0.016660478 -0.016401967 -0.018506892 -0.07972592 -0.010548434 -0.03904933 -0.068173856 -0.06215662
-0.08819972 -0.13785228 -0.0041488004 0.05451289 -0.011991426 0.00893217 -0.06251998 -0.02066346
00000000: ec8a 4ebd 4087 84bc 9f0a 1fbb 31da e53b
00000010: 8bbe b2bb 0699 1d3d e067 34bd a62f d43c
00000020: 158f a13c 6d10 923b 38a8 003c 02a8 2ebd
00000030: f1d9 85bd 069e cbbb 5d86 133c 3980 a5bc
00000040: ca41 57bd bdf7 ac3c 41b3 23bd ecc9 c53c
00000050: 26a5 283c 458e 10bc 509a 97bc e6ff 4c3d
00000060: cfd9 02bc 3599 eabc 8914 89bd c887 763c
00000070: dd26 0b3d 0694 64bd f557 bdbc 0c27 9c3c
00000080: 92a5 6bbd b3b0 89bd 4dcb aabd 4ff3 143d
00000090: e6fb 70bd 3076 6eba bad1 afbd dcbb d03c
000000a0: 67e9 4abd 6905 5ebd dfe1 c8bc ebd4 83bd
000000b0: 5996 82bc 82cb 48bd 97c5 d5bc e28e 493c
000000c0: 8447 02bd ad05 ad3b bbfd 9bbb bc7c 823a
000000d0: 074d d4bd b1dd 0bbd f505 17bd bbd9 05bd
000000e0: 9548 bdbc b082 5bbd d17c e3bc 82a5 993d
000000f0: eff6 b6bc 9545 a0bd 2d6a 88bd 76cd a0bc
00000100: 441d 75bd c8a3 b93c 4c88 493d da96 13bd
00000110: 73f6 de3c 7d27 133c 1e48 233d 5d06 35bd
00000120: 143d 28bc 177d 40bd d94f d9bd a9db ae3b
00000130: 5b26 8dbd 43c7 83bd 5830 d6bd 3555 63bd
00000140: 1120 a83b bdb1 c5bb aa21 88bc b1bd 283b
00000150: 2ef0 d2bc 0d66 dabd 9194 693d 72ed 3cbd
00000160: 1f36 cfbd 6c3d 6dbd a747 aebc 1282 ccbc
00000170: 6407 bdbd 1aff 793d 7f4f 8ebc 6326 523d
00000180: 10a7 89bd dbfd 2dbd 9a01 3dbc 232d ae3a
00000190: 11fe 64bd 56b1 37bd 5843 a73d d34d 77bd
000001a0: 2595 fabc 9bc6 07bd d7c5 8c3c 49d6 c8bc
000001b0: 33ff 6abc 8a97 73bd 6aab 8bbd 5fa1 68bd
000001c0: 8e7b 88bc 6b5d 86bc c49b 97bc 5847 a3bd
000001d0: 57d3 2cbc 31f2 1fbd bc9e 8bbd f197 7ebd
000001e0: 0ea2 b4bd 2629 0dbe a9f2 87bb e848 5f3d
000001f0: b077 44bc 3d58 123c 7a0a 80bd 6b46 a9bc
