models/sony_images/states/tf_export/g_conv3_1/weights.npy (npy, 295040 bytes, 1 tensors)

array f4 [3, 3, 64, 128]
0	0xbdea26b7	-0.114331655
1	0xbd87abc2	-0.06624557
2	0xbc869171	-0.016426774
3	0xbe1f842e	-0.15577766
4	0xbcb34c8c	-0.021887086
5	0xbddf346c	-0.108986706
6	0xbe05c8d4	-0.13064891
7	0xbdbcc2ce	-0.092168435
8	0x3d6d5fa2	0.05795253
9	0xbdfae68f	-0.12251007
10	0xbd006060	-0.03134191
11	0xbdd6dee5	-0.104917325
12	0x3cb385f7	0.021914465
13	0xbc103fad	-0.008804244
14	0xbc6b2151	-0.014351205
15	0xbcb51a30	-0.022107214
16	0x3d46dc9e	0.04855024
17	0xbd6e1585	-0.05812599
18	0xbd6992ca	-0.057024755
19	0xbc284a61	-0.01027164
20	0xbc25979b	-0.010106946
21	0xbd7366d8	-0.05942425
22	0xbb3fc3a0	-0.0029260889
23	0xbdc11a18	-0.09428805
24	0x3d805d24	0.06267765
25	0x3d956dae	0.0729631
26	0x3df466e4	0.11933687
27	0xbdc76bad	-0.097373344
28	0x3cb155aa	0.021647293
29	0xbd8c0e34	-0.068386465
30	0x3cfc11de	0.030770238
31	0x3cf2516a	0.029579837
32	0x3d8cc615	0.06873719
33	0x3d856767	0.06513863
34	0xbda39b51	-0.07988609
35	0xbd3c0e65	-0.045912165
36	0x3d543b0d	0.051814128
37	0xbbbf12ea	-0.005831112
38	0x3d0b07ee	0.03394311
39	0x3cf6346e	0.030054297
40	0x3d5e94a8	0.05434099
41	0x3ca710d2	0.020393763
42	0x3d36ae9b	0.04460011
43	0xbcd67135	-0.026177028
44	0xbc30dfd1	-0.0107955495
45	0x3dda1338	0.10648197
46	0x3c9364cb	0.017992398
47	0xbd96c5fd	-0.07361982
48	0x3d5e7074	0.054306462
49	0x3dad484e	0.08461057
50	0x3d61679e	0.055030458
51	0xbd2774ec	-0.04088299
52	0x3c81f840	0.015865445
53	0x3ce34c4d	0.027746344
54	0x3da38130	0.07983625
55	0xbd87d1b6	-0.06631796
56	0xbd00ed30	-0.0314762
57	0xbc34ccf7	-0.011035196
58	0xbcc4bc4f	-0.024015574
59	0x3d55b6ed	0.052176405
60	0xbd6ffdca	-0.05859164
61	0x3d93712d	0.07199321
62	0xbbd99dea	-0.0066411393
63	0x3da71085	0.08157448
64	0x3d5e4b45	0.054271
65	0xbd94615f	-0.072451346
66	0x3c8a4510	0.016878635
67	0xbcd6fe8b	-0.026244422
68	0xbd862441	-0.06549884
69	0x3db38f71	0.08767594
70	0xbd8fdef0	-0.07024944
71	0xbd423ece	-0.047423176
72	0xbca93ac0	-0.020657897
73	0x3e2aade9	0.16667904
74	0xbcb2220a	-0.021744747
75	0xbd3e2771	-0.046424333
76	0xbcdda414	-0.027055778
77	0x3cb34087	0.021881355
78	0x3dd5db64	0.10442236
79	0x3ccee6b2	0.025256488
80	0x3c1caea5	0.009563123
81	0xbb9444b7	-0.004524793
82	0xbdafcd50	-0.08584082
83	0xbdbaff9a	-0.091307834
84	0x3c96a944	0.018391259
85	0x3d2d54ae	0.042317085
86	0xbcc21c1b	-0.023695042
87	0xbd839c6b	-0.06426319
88	0x3daf0014	0.08544937
89	0xbc74c218	-0.014938854
90	0x3d5fe668	0.054663092
91	0x3d015309	0.03157333
92	0xbd55dc54	-0.052212074
93	0xbd7ca912	-0.061684676
94	0xbe04541c	-0.1292271
95	0xbd5f99af	-0.054589923
96	0x3e0183a5	0.12647875
97	0xbda407a6	-0.08009271
98	0x3b53160d	0.0032209188
99	0x3db02d32	0.0860237
100	0x3d0f83ee	0.035037927
101	0xbbe217f0	-0.006899826
102	0xbd1bcae6	-0.038035296
103	0x3c584284	0.013199452
104	0xbbdc429c	-0.0067218076
105	0xbdb46b30	-0.08809507
106	0xbdc8b7e7	-0.098007016
107	0xbdc1da08	-0.09465414
108	0xbd926f8b	-0.071501814
109	0xbda2bd77	-0.07946294
110	0xbd9fcdc1	-0.07802916
111	0xbca96523	-0.020678109
112	0x3d777d81	0.060422424
113	0x3dd2b290	0.10287964
114	0x3ddbd96a	0.10734828
115	0x3d627e84	0.055296436
116	0x3d62592b	0.05526082
117	0xbcfd6920	-0.030933917
118	0xbcc4224c	-0.023942135
119	0x3d6fe7c3	0.058570635
120	0xbd76b83f	-0.060234305
121	0x3df5951a	0.119913295
122	0xbd64ea88	-0.05588773
123	0x3c07616b	0.008262972
124	0xbd860531	-0.06543959
125	0xbdfdac5f	-0.12386393
126	0x3d1250dc	0.035721645
127	0x3abee668	0.0014564516
128	0xbceea0af	-0.029129354
129	0xbd8b288d	-0.06794844
130	0x3ca1db5d	0.01975792
131	0x3cd2535d	0.025674516
132	0x3cce3954	0.02517382
133	0xbddeeac4	-0.10884622
134	0x3a63e267	0.00086930994
135	0xbd060d5e	-0.03272759
136	0xbd60f40d	-0.054920245
137	0xbb7759d5	-0.0037742753
138	0x3c9f3146	0.019432675
139	0x3b0d966a	0.0021604546
140	0x3c8d0206	0.017212879
141	0xbd6daa78	-0.0580239
142	0xbce2aef0	-0.027671307
143	0x3ce1ac32	0.02754793
144	0x3dc14e90	0.09438813
145	0xbd37e43c	-0.044895396
146	0x3d2ce724	0.04221262
147	0xbcb53678	-0.0221207
148	0x3d566933	0.05234642
149	0xbd2a067e	-0.041510098
150	0xbdcb5399	-0.09928054
151	0x3c8043a0	0.015657246
152	0xbcc4d4c2	-0.024027232
153	0xbd11a859	-0.03556094
154	0xbd09cdac	-0.03364341
155	0x3c841430	0.016122907
156	0xbb003e92	-0.0019568545
157	0xbbc2ef13	-0.00594891
158	0xbd5b6f68	-0.053573042
159	0xbce8698f	-0.028370647
160	0x3dadb389	0.08481509
161	0x3d288087	0.0411382
162	0xbc546932	-0.012964534
163	0x3d2e1fe9	0.0425109
164	0x3cdff1bf	0.027336953
165	0x3d02e013	0.031951975
166	0x3d00ed92	0.031476565
167	0x3dbe2c20	0.0928576
168	0x3cbf4f86	0.02335335
169	0x3d2cb386	0.042163394
170	0x3d346c12	0.044048376
171	0x3ba2a06c	0.0049629714
172	0x3da60391	0.08106149
173	0xbd3436a1	-0.04399741
174	0xbc9585b0	-0.018252224
175	0xbcd7409f	-0.02627593
176	0x3db93b92	0.09044565
177	0x3df106da	0.11768885
178	0xbcae33a6	-0.021264862
179	0x3d1df43a	0.03856299
180	0x3d849239	0.06473202
181	0xbcf48533	-0.02984867
182	0xbbe4ee31	-0.0069864024
183	0x3d42ecbf	0.04758906
184	0xbcc531f5	-0.024071673
185	0xbd450529	-0.048100624
186	0xbb5fa1f4	-0.0034123631
187	0xbdaad99f	-0.08342289
188	0x3d474c9f	0.048657056
189	0x3d28b6a4	0.041189805
190	0xbd33858c	-0.043828532
191	0x3bc16011	0.0059013446
192	0x3c675f96	0.014121911
193	0xbb3c3c64	-0.002872252
194	0xbd80bd3f	-0.06286096
195	0x3d1b8835	0.037971694
196	0xbd1093f3	-0.035297345
197	0x3c0252c2	0.007954301
198	0xbe0812e2	-0.13288453
199	0x3dcc83e9	0.09986097
200	0xbd1c5b1d	-0.03817283
201	0xbd13b13b	-0.036057692
202	0x3dcc85c8	0.09986454
203	0x3c920e0e	0.017828967
204	0x3bbe2a98	0.0058034174
205	0xbe5b94cb	-0.21443479
206	0xbd064216	-0.03277787
207	0x3c4a1b2a	0.012335578
208	0xbc6e74c3	-0.014554205
209	0x3d2caf9e	0.04215967
210	0xbcfee24c	-0.031113766
211	0x3ae06a6b	0.0017121559
212	0x3dae45ae	0.08509384
213	0xbbfeb577	-0.007773097
214	0x3bc3eaa6	0.0059789
215	0xbd0401b7	-0.032228198
216	0xbc3039f2	-0.010756003
217	0x3cd0d13f	0.025490401
218	0xbd1c9984	-0.03823234
219	0xbd2f8d52	-0.042859383
220	0xbd8f70d6	-0.070039436
221	0xbc59848c	-0.013276231
222	0xbca3b298	-0.019982621
223	0x3bc9580f	0.0061445306
224	0xbc8debc6	-0.01732434
225	0x3d0cb191	0.034349028
226	0xbdab0fe0	-0.08352637
227	0xbe1af9ce	-0.15134355
228	0x3cad66f4	0.021167256
229	0x3bf828e3	0.0075732335
230	0xbdd59839	-0.10429425
231	0x3d33c793	0.0438915
232	0x3d1e6945	0.03867461
233	0xbd8ad0b5	-0.06778089
234	0xbca30e5a	-0.019904304
235	0x3d7b1222	0.06129659
236	0xbcfe51e8	-0.031044915
237	0x3d31cc67	0.043407824
238	0x3c76e414	0.0150690265
239	0x3d0bbe0a	0.034116782
240	0x3d28f46a	0.041248716
241	0xbd8f269d	-0.06989787
242	0x3cfbb2f8	0.030724987
243	0xbc657c13	-0.014006632
244	0x3b8198e2	0.0039549926
245	0xbc0fc4f5	-0.008774986
246	0xbcb67e26	-0.02227695
247	0xbd6c9a15	-0.05776413
248	0x3c990be0	0.01868242
249	0x3d46520d	0.048418093
250	0xbc3878bc	-0.011259254
251	0xbc8a0cdb	-0.016851833
252	0xbd3476a0	-0.044058442
253	0xbb66b33f	-0.0035202054
254	0xbd5388e0	-0.051644206
255	0xbd06ccb6	-0.03291007
