models/sony_images/states/tf_export/g_conv9_2/weights.npy (npy, 36992 bytes, 1 tensors)

array f4 [3, 3, 32, 32]
00000000: c519 7f3d 6200 2c3d 131f 88bd 7806 0e3d
00000010: dc7a eebc 266b a1bc 637a 4f3d 775e b03d
00000020: b34a 2c3d 0e14 a5bd e5a5 ba3d 8921 093c
00000030: 085f 2c3d f79c 0e3d f077 203e fc7d 043e
00000040: c20d e8bc 3aa8 2fbd 5732 a93c 11a2 9b3c
00000050: a053 f0bc c516 083c 200b d03c df7a 50bd
00000060: ca7d 313d 9dd4 3bbc 9ee3 8cbb 20e0 f4bd
00000070: 7577 4fbd 01cc 1bbd 7425 1e3d da74 173c
00000080: d78d 833c f741 f23b 829f bbbd 6237 53bd
00000090: f2cf ab3c e734 a0bc a197 5d3d d036 fa3c
000000a0: 8fdd 9abd 2cfe 1bbd 90b1 6ebb 4283 c8bd
000000b0: a1df 7bbd 28d6 903d d460 803c 7747 053d
000000c0: 3c11 173d 0ec7 99bc a4b8 70bd d08a 05bd
000000d0: e7b8 89bd c714 37bc 3317 92bd f060 b4bd
000000e0: 5de1 063a 7a17 573d ca90 523d 49eb a2bd
000000f0: 994c 98bd fda3 e6bd 345b 26bd 81bc 0fbd
00000100: 9b51 09bd a6cd d43d 4537 98bc ec8c f43d
00000110: e686 bebd c03a fb3d 5d9b 673d 5d41 6bbc
00000120: 4173 fe3b 4733 88bc cf34 6e3c 7c38 193e
00000130: 2d76 483d b19d 3dbd a587 d4bb 34b3 0cbe
00000140: 1cdf 13bd 77d9 9f3d 0d8d 8a3c 49b0 7c3d
00000150: 399b c43c cce6 713d b65f 19bd 8093 8b3d
00000160: 94d5 7b3b cd50 28bd 95ce 3abd 0c2b 3e3d
00000170: 78e5 fa3c ece8 943d 8a1a e33d 7c63 2c3d
00000180: dea3 66bc edd0 58bb 32d7 32bd 7bb5 89bc
00000190: e334 2e3d 4efe 9d3c 3182 fabd 426d fdbc
000001a0: 91d6 53bd 10a1 b93b 6c3e 79bd 1c5b 4c3d
000001b0: 032d a33d 1aad 99bb a50d c03d 18f8 5ebd
000001c0: 64b9 c83d 9215 473c 90a6 903c 8187 3ebb
000001d0: bd6e 793d 8c20 8f3c 5908 fdbc 1571 da3d
000001e0: 505a 9c3a 83b6 17bd 0ea7 193d 1990 e5bd
000001f0: 0e0a 2cbc fadc f73d afff 123d 3630 603d
00000200: 0007 e4bd c910 d43d 8526 65bd ec97 d73c
00000210: 960c 4f3d 54a9 993d ac8a eebb 096c f1bd
00000220: d6b0 8c3c 9886 52bd 6814 21bc 61e0 cc3c
00000230: c837 2a3c feec 823d 32f0 603d 26aa 84bd
00000240: dd1c 553d c727 6b3d f1bf 573c c2c8 a53c
00000250: e0ab cd3c 5d6d 613d 3492 933c cd6f 82bc
00000260: de88 343d a5e1 173b 9902 19be b12f 8dbb
00000270: d831 eb3d 3975 ee3d 0b54 163d 10f6 633d
00000280: a985 bd3c 4678 c93d eaa8 b93d 5f94 b73d
00000290: 46fd 09be d880 a73d 438d aa3d efef 523d
000002a0: ae25 78bd b978 e2ba 2a77 35bd d8b6 3bbc
000002b0: 6f20 9bbc 2035 cdbc 850d 8bbd bc43 b8bd
000002c0: e394 543d d8cb 2f3d fef5 5fbd 7d50 9abd
000002d0: 4523 b43d 6e0b 823d 1917 983d 94fb 6a3c
000002e0: a2fc 523d 6493 583d bccd f6bd 9781 93bd
000002f0: c6de 6a3d c59e 6f3d 4418 80bd b280 0a3c
00000300: 0fd8 053d aa6d 663d ca1a 573c 41c3 a93c
00000310: 9977 b9bd 09c4 0abd e9df ed3d cdff e0bd
00000320: 3727 07bb d1a3 0cbd 43ab abbc 64ee 8dbd
00000330: fcbe 98bd ffff 1b3d 6058 a23d 63cd 2a3c
00000340: 0a73 ccbc cfe1 a33c 5be8 6139 c123 01bd
00000350: a379 81bd ff62 28ba d061 71bc 1295 f63c
00000360: 34ab e2bc a56d 40bc 23ac 673b a928 8cbc
00000370: 76d9 b6bc 01e9 00bc d5b5 553c 5519 02bd
00000380: 9294 23bd 51e9 6f3d a738 103c 5d7a 98bc
00000390: 1616 58bd 733f 2f3b 9321 acbd 27ad 673d
000003a0: 231b 013d 6a1c f1bd feea 343b 2a68 8bbc
000003b0: 1ae8 e13c 2ec7 c63b 641e 403c 9ec3 633c
000003c0: 9a1b a8bd 796a 723d 9f32 f93b 250c 8f3c
000003d0: b297 673d fe75 f7bc 9a3c ec3c 78af 2c3e
000003e0: 2625 f5bc 0a17 3bbe 9298 353d 55ff 823d
000003f0: 13af 31bc 672a 4abc 0935 a13d c636 c4bc
0.062280435 0.041992553 -0.06646552 0.034674138 -0.029111318 -0.019704413 0.050653826 0.08611768
0.042063426 -0.08060466 0.09113673 0.008369812 0.042082816 0.034817662 0.15670753 0.12938684
-0.028326873 -0.042885043 0.020653887 0.018998178 -0.02933675 0.00830621 0.02539593 -0.05089843
0.043332852 -0.011464265 -0.004299595 -0.11956811 -0.050651032 -0.03803635 0.038609937 0.009244168
0.016058845 0.0073931175 -0.09161283 -0.05156649 0.02097318 -0.019556476 0.054099683 0.030543715
-0.0756179 -0.038084194 -0.0036421753 -0.097906604 -0.061492566 0.07072097 0.015671171 0.032538857
0.03688167 -0.018771674 -0.058769837 -0.032603085 -0.067247204 -0.011174387 -0.07133331 -0.08807552
0.0005145276 0.052512623 0.051407613 -0.07955033 -0.07436485 -0.11261747 -0.04061432 -0.03509188
-0.03352509 0.10390787 -0.018581042 0.11940941 -0.093030736 0.12267065 0.05654465 -0.014358846
0.007765204 -0.016626013 0.014538958 0.14962953 0.048940826 -0.046292964 -0.0064858967 -0.13740236
-0.036101446 0.0780515 0.016912961 0.061691556 0.023999797 0.059057996 -0.037444793 0.06815243
0.0038426863 -0.041092683 -0.04560717 0.04642777 0.030626997 0.07270989 0.11089046 0.042087063
-0.014077155 -0.0033083514 -0.043662257 -0.01681017 0.042530905 0.019286301 -0.12231863 -0.030935887
-0.0517183 0.005664952 -0.060850546 0.049891576 0.0796757 -0.004689825 0.093776025 -0.05443582
0.098009855 0.012151139 0.017657548 -0.0029072466 0.060896624 0.017471574 -0.03088777 0.106661
0.0011928771 -0.03703929 0.03751283 -0.11209125 -0.010500444 0.12102695 0.03588837 0.054733478
-0.11134148 0.10354764 -0.05594494 0.02631756 0.050549112 0.07503 -0.0072797146 -0.11788184
0.017174166 -0.05139789 -0.009831525 0.025009336 0.010389276 0.06392859 0.054916568 -0.06477766
0.05202948 0.05741098 0.013168321 0.02023733 0.02510637 0.055035938 0.018014051 -0.015922451
0.04407584 0.0023175266 -0.14942397 -0.004308664 0.11484116 0.11643452 0.036701243 0.055654585
0.023135023 0.098373935 0.09065421 0.089638464 -0.13475522 0.08178872 0.08327725 0.05149835
-0.06058281 -0.001727841 -0.044303097 -0.011457168 -0.018936364 -0.025049746 -0.06789688 -0.08997294
0.051899802 0.04291901 -0.054677956 -0.07534883 0.0879579 0.06349836 0.074262805 0.014342207
0.05151046 0.052874938 -0.120509595 -0.07202452 0.05734136 0.058501024 -0.06254628 0.008453535
0.032676753 0.056256928 0.013128946 0.020722987 -0.090560146 -0.03387836 0.11614973 -0.1098629
-0.002062274 -0.034335915 -0.020955687 -0.06930235 -0.074583024 0.038085934 0.079270124 0.010424945
-0.024957199 0.020005135 0.00021544231 -0.03152824 -0.063220285 -0.0006423443 -0.014732793 0.03010038
-0.027669527 -0.011744891 0.0035350404 -0.017109232 -0.02232049 -0.007868052 0.01304384 -0.03176244
-0.03993661 0.058572117 0.0088025695 -0.018613035 -0.052755438 0.00267407 -0.08404841 0.056561615
0.03152002 -0.11772998 0.0027605887 -0.017017443 0.027576495 0.0060662245 0.011725996 0.013901619
-0.082083896 0.05918357 0.0076049115 0.017461846 0.056541152 -0.03020763 0.02883749 0.16863811
-0.02992494 -0.18270507 0.044334956 0.06396357 -0.010844964 -0.012339211 0.07871444 -0.0239519
