models/sony_images/states/tf_export/g_conv4_1/biases.npy (npy, 1152 bytes, 1 tensors)

array f4 [256]
-0.07597951 -0.029965771 -0.013323582 -0.07761156 -0.0661054 0.069323175 -0.05502139 -0.18332562
-0.020287603 -0.1289953 0.015456867 0.0037318456 -0.061945524 0.012329657 -0.039610382 0.030932397
0.11208725 0.059903134 -0.066096984 -0.06069259 -0.019272717 -0.13173592 -0.087192506 -0.031499285
-0.044055894 -0.044811044 -0.051846553 -0.09468386 -0.119721904 -0.041526634 -0.07009307 -0.020705279
-0.09677086 -0.07233886 -0.003926648 -0.10041147 0.009749803 0.0363546 -0.016387226 -0.046605825
-0.032456227 -0.00059571303 -0.09617859 -0.04273612 0.005415132 -0.21605362 -0.010934831 -0.06951284
-0.105941795 -0.00805672 -0.14643085 -0.062337164 -0.12455134 -0.06794256 -0.028848642 0.007033671
-0.04740385 0.08218696 -0.08351475 -0.021998849 -0.15164056 -0.07380048 0.03682693 -0.019136855
0.051268175 0.014845585 -0.1012685 0.029956514 -0.08551009 -0.03969661 -0.0826031 -0.007807274
-0.03633316 -0.004079815 -0.08645088 -0.07445049 -0.10604596 -0.066914596 -0.069031656 -0.023186354
0.08543292 -0.085269175 -0.043586258 -0.05503963 -0.06529268 -0.059294663 -0.03455517 -0.060005862
-0.026008505 0.010577182 -0.055782076 -0.009908413 -0.044376504 0.022665624 -0.022327771 -0.056767367
0.008640872 -0.16196856 -0.022854863 -0.087713934 -0.08460291 -0.051201373 0.057221826 -0.05859655
0.0040418655 0.13064098 -0.024332535 -0.08675752 0.0048624664 -0.08634266 -0.112285815 -0.074994974
-0.029575652 -0.047247306 -0.21899594 -0.04953448 -0.01561958 0.011832944 -0.054898933 -0.060524482
-0.047364432 -0.05009147 -0.023157516 -0.0337266 -0.083548844 -0.004027716 -0.030034369 -0.037324943
-0.018327814 -0.060366567 -0.039503973 -0.08494342 -0.010025295 0.031304736 -0.105046265 -0.109100126
-0.047402572 0.04589732 -0.03569744 -0.20633823 -0.0042622695 -0.068031244 -0.049042538 -0.04696895
-0.057341814 0.0075287316 0.007242958 0.07207331 -0.013658489 -0.029553838 -0.056125395 0.0100687295
-0.07223697 -0.0018465862 0.00245394 -0.026122117 -0.07306157 -0.08210388 -0.02770977 -0.10985001
0.01763856 -0.07287039 0.00858155 -0.06661274 -0.09425188 -0.017046064 -0.08690334 -0.03206689
-0.12376177 -0.08028362 -0.08140327 -0.05517128 0.019405259 -0.040409196 -0.10580188 -0.05552765
-0.087075554 -0.03875466 -0.050765168 -0.07628738 -0.0118453195 -0.078562036 -0.033801258 -0.05581132
-0.09388598 -0.008509623 -0.055015832 -0.064832225 -0.085136294 0.005044369 -0.07602393 0.06306513
-0.07950804 -0.117384784 -0.08057594 -0.06810988 -0.09041687 -0.11002167 -0.07292708 -0.07140932
-0.045471545 -0.043576248 -0.045373764 0.0026702352 -0.009290819 0.0011703933 -0.019595305 -0.047791235
-0.013412899 -0.10746709 -0.06994708 -0.03144679 -0.052269254 0.0041906834 -0.05114987 -0.11849054
-0.14949185 -0.065546274 -0.050980918 -0.027232565 -0.06738655 0.022816433 -0.007457408 -0.01608316
-0.13065325 -0.053344317 -0.029603468 -0.057376347 -0.084572084 -0.04460296 -0.04504211 -0.054423325
-0.07948489 -0.070574924 -0.057517134 -0.26292336 -0.10137012 0.010049611 -0.09239699 -0.022759546
-0.0425058 -0.06042433 -0.06894625 -0.003232559 -0.070947655 -0.0712585 -0.019310242 -0.03831945
-0.07065483 -0.020398032 -0.027057558 -0.08091165 -0.07452297 0.0014046844 0.036109522 -0.049083587
00000000: 259b 9bbd c77a f5bc 274b 5abc cff2 9ebd
00000010: 4562 87bd 4ff9 8d3d 1c5e 61bd b6b9 3bbe
00000020: 3032 a6bc 5817 04be cd3e 7d3c fb91 743b
00000030: 97ba 7dbd 5402 4a3c 7f3e 22bd f065 fd3c
00000040: 008e e53d fd5c 753d db5d 87bd cb98 78bd
00000050: d1e1 9dbc c8e5 06be fc91 b2bd 6505 01bd
00000060: f473 34bd c98b 37bd 0d5d 54bd 9de9 c1bd
00000070: c230 f5bd d517 2abd f58c 8fbd 1e9e a9bc
00000080: cd2f c6bd 6526 94bd 1cab 80bb 87a4 cdbd
00000090: a3bd 1f3c 90e8 143d 813e 86bc c0e5 3ebd
000000a0: d2f0 04bd a029 1cba 48f9 c4bd 120c 2fbd
000000b0: 6b71 b13b 293d 5dbe 0128 33bc bf5c 8ebd
000000c0: 03f8 d8bd 5500 04bc f8f1 15be 4155 7fbd
000000d0: c614 ffbd 7825 8bbd fd53 ecbc b57a e63b
000000e0: 8a2a 42bd a351 a83d c809 abbd ee36 b4bc
000000f0: aa47 1bbe b524 97bd d6d7 163d e5c4 9cbc
00000100: 94fe 513d e63a 733c dc65 cfbd 5d67 f53c
00000110: ea1f afbd ea98 22bd d02b a9bd 29d4 ffbb
00000120: 14d2 14bd f8af 85bb 290d b1bd 8079 98bd
00000130: a02e d9bd 850a 89bd 7860 8dbd 4ff1 bdbc
00000140: 74f7 ae3d 9ba1 aebd 8187 32bd 3c71 61bd
00000150: 2bb8 85bd f6de 72bd b989 0dbd b5c8 75bd
00000160: ca0f d5bc eb4b 2d3c bf7b 64bd e556 22bc
00000170: 23c4 35bd 42ad b93c bbe8 b6bc e684 68bd
00000180: 7292 0d3c 16db 25be 1f3a bbbc 5da3 b3bd
00000190: 4a44 adbd 88b8 51bd 6f61 6a3d f002 70bd
000001a0: a071 843b c0c6 053e 0655 c7bc edad b1bd
000001b0: 5355 9f3b 6cd4 b0bd 1bf6 e5bd f796 99bd
000001c0: a348 f2bc 6486 41bd 7940 60be abe4 4abd
000001d0: 44e9 7fbc f7de 413c b4dd 60bd 85e8 77bd
000001e0: 3501 42bd b72c 4dbd d5b4 bdbc e724 0abd
000001f0: a81b abbd eefa 83bb a30a f6bc 0ae2 18bd
00000200: 3624 96bc ef42 77bd ebce 21bd d1f6 adbd
00000210: 2341 24bc 6539 003d 7f22 d7bd e36f dfbd
00000220: 3329 42bd d4fe 3b3d 7b37 12bd 544a 53be
00000230: 82aa 8bbb f753 8bbd d4e0 48bd 8462 40bd
00000240: 40df 6abd 94b3 f63b 5656 ed3b 2c9b 933d
00000250: dbc7 5fbc e41a f2bc bee3 65bd 50f7 243c
00000260: faf0 93bd 2709 f2ba 48d2 203b 0dfe d5bc
00000270: 4ea1 95bd 1426 a8bd 99ff e2bc 0bf9 e0bd
00000280: be7e 903c 123d 95bd a199 0c3c 436c 88bd
00000290: 2107 c1bd 30a4 8bbc 61fa b1bd 9258 03bd
000002a0: d076 fdbd bd6b a4bd c2b6 a6bd 48fb 61bd
000002b0: c7f7 9e3c 1d84 25bd a8ae d8bd f670 63bd
000002c0: ab54 b2bd 35bd 1ebd 23ef 4fbd 8f3c 9cbd
000002d0: df12 42bc 22e5 a0bd 3073 0abd 699a 64bd
000002e0: 4b47 c0bd f26b 0bbc 4858 61bd c2c6 84bd
000002f0: f05b aebd 3c4b a53b 6fb2 9bbd 4a28 813d
00000300: 1cd5 a2bd 6f67 f0bd 0005 a5bd 317d 8bbd
00000310: 7b2c b9bd 0b53 e1bd cb5a 95bd 0d3f 92bd
00000320: 5f40 3abd 027d 32bd d7d9 39bd 1dff 2e3b
00000330: 8538 18bc e267 993a 5586 a0bc bec0 43bd
00000340: c7c1 5bbc b517 dcbd 6a40 8fbd 59ce 00bd
00000350: 4918 56bd 0052 893b 8782 51bd 2bab f2bd
00000360: 6414 19be 203d 86bd 5ed1 50bd d416 dfbc
00000370: f601 8abd 87e9 ba3c 465d f4bb d5c0 83bc
00000380: f7c9 05be 927f 5abd f982 f2bc 7603 6bbd
00000390: 2134 adbd 98b1 36bd 137e 38bd feea 5ebd
000003a0: f9c8 a2bd 9689 90bd 1697 6bbd e49d 86be
000003b0: 239b cfbd 20a7 243c a23a bdbd 3a72 babc
000003c0: 901a 2ebd 817f 77bd b133 8dbd 57d9 53bb
000003d0: 014d 91bd faef 91bd 8330 9ebc dbf4 1cbd
000003e0: 7bb3 90bd c619 a7bc d0a7 ddbc 02b5 a5bd
000003f0: 809f 98bd 631d b83a 94e7 133d df0b 49bd
