models/sony_images/states/tf_export/g_conv7_2/biases.npy (npy, 640 bytes, 1 tensors)

array f4 [128]
0	0xbd2a1e26	-0.041532658
1	0xbcb9cbf3	-0.022680258
2	0xbc97fa16	-0.018551867
3	0xbdacd0b9	-0.08438248
4	0xbe02e50e	-0.1278269
5	0xbd5e0e7f	-0.054213043
6	0xbc6984bf	-0.014252841
7	0x3da19fab	0.078917824
8	0x3c90089f	0.017582236
9	0x3e2622d5	0.16224225
10	0xbda93c4b	-0.08263453
11	0x3ca73d3a	0.020414937
12	0xbe067dce	-0.13133928
13	0x3cab1b64	0.020887084
14	0xbe006d64	-0.12541729
15	0xbd998db0	-0.07497728
16	0xbd8a373e	-0.06748818
17	0xbe0cd3cf	-0.13752674
18	0x3d9106ef	0.070814006
19	0x3d65853d	0.05603527
20	0xbe1562ce	-0.14588472
21	0xbdb85772	-0.09001054
22	0xbcbb6b76	-0.02287839
23	0xbdafc683	-0.08582785
24	0xbe06ab3a	-0.13151255
25	0xbd330461	-0.043705348
26	0xbe02f082	-0.12787059
27	0xbd21478b	-0.03937487
28	0x3d681603	0.056661617
29	0xbd637e7a	-0.05554054
30	0xbd83454f	-0.06409704
31	0xbd42aade	-0.047526233
32	0x3d887907	0.06663709
33	0xbd682b7d	-0.0566821
34	0x3da0aae0	0.07845092
35	0xbce0f7b7	-0.02746187
36	0xbe13b51d	-0.14424558
37	0xbd4251ce	-0.047441296
38	0xbd3385b3	-0.043828677
39	0x3d6f0d2b	0.058362167
40	0xbcda56af	-0.026652662
41	0xbe3c4f25	-0.18389566
42	0xbc39f6d7	-0.011350355
43	0xbe3a3fd4	-0.18188411
44	0xbdfd6b9c	-0.123740405
45	0x3cf44737	0.029819114
46	0xbdb6fdf1	-0.08935154
47	0x3ddfb9e4	0.10924128
48	0xbd363cef	-0.044491705
49	0x3d07ddbe	0.033170454
50	0x3d55a090	0.052155077
51	0x3cda8f6d	0.026679719
52	0x3dc9a316	0.09845559
53	0x3e13de95	0.14440377
54	0xbc22410f	-0.0099032065
55	0x3ce3afe4	0.027793832
56	0xbdbf36b5	-0.093366064
57	0x3d37899f	0.04480898
58	0x3cc84b6c	0.024450026
59	0xbcdaf3d3	-0.026727593
60	0x3d848a34	0.06471673
61	0xbcff71d3	-0.031182205
62	0x3bd8a0e3	0.006610976
63	0xbd273e95	-0.040831167
64	0x3ca25bc3	0.019819146
65	0xbc7f8820	-0.01559642
66	0xbd6aa08f	-0.057282027
67	0x3dc7bc77	0.09752744
68	0x3cd05e35	0.025435546
69	0x3bf5b6b9	0.007498589
70	0x3d6a14b2	0.057148643
71	0xbe0cc19b	-0.1374573
72	0xbd854b04	-0.06508449
73	0xbc72dfe2	-0.014823886
74	0x3d69ff5b	0.05712829
75	0x3c6dd797	0.014516733
76	0xbce91124	-0.028450556
77	0xbd405539	-0.046956275
78	0xbe2147ea	-0.1575009
79	0xbd1d7aa1	-0.038447026
80	0xbd3704ec	-0.04468243
81	0xbe1d02f5	-0.1533316
82	0x3d73021e	0.05932819
83	0xbbce0481	-0.006287158
84	0x3d40de60	0.047087073
85	0xbddb90f9	-0.10721011
86	0xbd1e07c8	-0.03858164
87	0xbe048271	-0.12940384
88	0xbd71d3a3	-0.059039723
89	0x3d2ec624	0.04266943
90	0x3c8f40c4	0.017486937
91	0xbe160906	-0.1465188
92	0xbb9125a8	-0.004429538
93	0x3d62864d	0.05530386
94	0xbe8f0f54	-0.27941382
95	0xbdacd59b	-0.084391795
96	0xbc8d1545	-0.017222056
97	0x3d8027ff	0.06257629
98	0xbc312bf0	-0.010813698
99	0x3c53b35c	0.012921181
100	0x3d02ed45	0.03196456
101	0x3d149482	0.03627444
102	0xbd26f820	-0.040763974
103	0xbd45a575	-0.048253495
104	0x3d0e9270	0.034807622
105	0xbc4940e6	-0.012283539
106	0x3c0e7b2d	0.00869636
107	0xbd9a9c3e	-0.07549332
108	0xbda40ff6	-0.08010857
109	0xbe48e115	-0.19617112
110	0xbdc71d7a	-0.09722419
111	0x3d180afd	0.037119854
112	0xbdaea09e	-0.08526729
113	0x3dc39644	0.09550145
114	0xbcfbf729	-0.030757504
115	0xbdb49262	-0.08816983
116	0xbd891b27	-0.06694632
117	0xbdb16032	-0.08660926
118	0xbdced59f	-0.10099339
119	0x3c721745	0.014776056
120	0xbdd8a532	-0.105783835
121	0xbd3cdd1e	-0.04610931
122	0xbda12346	-0.07868056
123	0xbdbbdd7c	-0.09173104
124	0x3d8bc48d	0.068245985
125	0x3d39db5d	0.045375217
126	0xbd9b92ea	-0.07596381
127	0x3b4bbcac	0.00310878
