models/sony_images/states/tf_export/g_conv7_2/weights.npy (npy, 589952 bytes, 1 tensors)

array f4 [3, 3, 128, 128]
0.06270679 0.049204335 0.01684568 0.108725525 0.040964425 -0.015410443 -0.04041132 -0.042484157
-0.0067076753 -0.055933535 -0.023509035 0.023871202 -0.011150681 -0.068609245 -0.028888695 -0.033696897
-0.013245771 0.033650436 0.018061941 0.04084502 -0.020998165 0.0039837365 0.020364422 0.034118157
0.058666915 0.015136941 0.017059308 -0.037037037 -0.0020712921 0.019183688 0.071027465 0.0042358316
-0.03949754 0.065178536 -0.07882557 -0.06544519 -0.005757199 -0.029844966 -0.015639378 -0.1077438
-0.057259604 0.022550283 -0.0439587 0.042322133 0.005794201 -0.019533243 0.018633071 0.02142062
0.03784686 -0.05336052 -0.10313225 0.008506961 -0.04351939 0.07890228 0.044741888 -0.051669393
0.05593963 -0.01824289 -0.038960904 0.12441733 -0.12383158 -0.0076724975 -0.046377253 0.014924508
-0.048205063 0.083369836 0.05422621 -0.025668161 0.074813426 -0.029054983 -0.0592281 0.008315002
0.0071156807 0.005214656 0.006883037 -0.019685471 0.022738274 -0.06481821 0.08560161 0.023519963
-0.04308036 0.07185291 -0.07190703 -0.08313467 -0.056740224 -0.0433583 -0.018538058 0.040180225
0.106814906 -0.051237725 -0.0483878 0.021772511 -0.0019946876 0.0026874645 0.048270047 -0.07610747
-0.07707758 0.0041171215 -0.05401421 -0.030020675 -0.008266585 0.04695417 -0.015507004 0.018162562
-0.043446578 -0.07573953 0.007529913 -0.023238314 -0.014105479 0.036911063 0.0024295037 -0.118300326
-0.024305696 -0.020198239 -0.05565347 0.064079665 -0.022554146 -0.00694569 0.07335315 0.06918714
-0.009297904 -0.059253763 -0.016811347 0.012519667 -0.083671555 0.07606221 0.07292038 -0.012349995
0.11892412 -0.06843359 -0.04090281 -0.028437845 -0.044478822 0.018848907 0.029109359 -0.17534669
-0.006530093 0.02819308 0.07596921 0.036731772 -0.048830654 -0.028415201 -0.01503599 -0.016517319
-0.058640655 0.038418688 -0.03365606 -0.0016375816 -0.023784308 0.0019514249 -0.06577697 -0.03266304
-0.023747582 -0.014466385 -0.0005071678 -0.03301459 -0.12504779 0.027560107 0.019360052 0.008177053
-0.038829494 -0.028167533 0.0033470779 -0.046573322 -0.082671225 0.083331764 -0.004239753 -0.030123457
-0.0492118 0.06494285 -0.061849955 0.0033053253 0.022265876 -0.013253939 -0.0036976442 0.012103603
-0.055242497 0.0043536574 0.045889053 -0.032408822 0.02409588 0.00290203 0.08631408 -0.032477498
0.05947896 -0.015644614 -0.005884313 0.029576104 0.04321117 0.041594435 0.00021641108 0.050358277
0.02403752 -0.0631262 -0.03670141 -0.014444268 -0.019040316 -0.10644354 -0.020571062 -0.023375213
-0.055405788 0.01755267 -0.037397344 -0.042974737 0.024318516 -0.11583533 -0.027164614 -0.031510394
0.03774191 -0.014210179 -0.056790404 0.024572171 0.037541837 -0.0018106742 -0.012361375 -0.10073876
0.07776405 -0.03586929 0.06789211 -8.041462e-06 0.028525423 -0.032787334 0.051924046 0.015655423
0.114462145 0.055043932 -0.05401034 -0.020464687 -0.035604406 -0.0057141082 0.03939996 -0.13933863
0.00374136 -0.0093080625 0.026716547 -0.08708176 -0.007718076 0.0036187388 0.05971199 -0.028661944
0.032807186 -0.017956583 -0.07035113 -0.09004757 -0.050983597 0.016749907 0.036690433 0.05015789
0.011359477 -0.00074289885 -0.043965887 0.09204837 0.02626053 -0.031209318 -0.037938207 -0.04413358
00000000: 6b6c 803d 7c8a 493d f4ff 893c 7dab de3d
00000010: 50ca 273d 157c 7cbc 5786 25bd de03 2ebd
00000020: 0fcc dbbb 901a 65bd 0596 c0bc 8a8d c33c
00000030: 59b1 36bc 0183 8cbd fca7 ecbc c205 0abd
00000040: ca04 59bc 0ad5 093d a3f6 933c 1c4d 273d
00000050: 5804 acbc 018a 823b 4ad3 a63c 7bbf 0b3d
00000060: b84c 703d ef00 783c f6bf 8b3c 26b4 17bd
00000070: 84be 07bb 1c27 9d3c d976 913d bbcc 8a3b
00000080: 2cc8 21bd 537c 853d 4d6f a1bd 2108 86bd
00000090: e3a6 bcbb 6e7d f4bc 271e 80bc c8a8 dcbd
000000a0: 0c89 6abd 5fbb b83c 0a0e 34bd f959 2d3d
000000b0: 48dd bd3b 2e04 a0bc 62a4 983c 4c7a af3c
000000c0: 4f05 1b3d 9090 5abd 0037 d3bd c860 0b3c
000000d0: 6341 32bd 8597 a13d 4543 373d 49a3 53bd
000000e0: f420 653d 1d72 95bc 7895 1fbd 83ce fe3d
000000f0: 699b fdbd 9369 fbbb 13f6 3dbd ec85 743c
00000100: ac72 45bd cebd aa3d 4d1c 5e3d 0946 d2bc
00000110: c837 993d b704 eebc 2a99 72bd a53b 083c
00000120: a82a e93b b4df aa3b 198b e13b 6d43 a1bc
00000130: 9e45 ba3c 69bf 84bd e64f af3d f0ac c03c
00000140: 0875 30bd 9e27 933d fe43 93bd 8342 aabd
00000150: 7068 68bd 7998 31bd 20dd 97bc 0594 243d
00000160: c6c1 da3d a6de 51bd 4932 46bd 445c b23c
00000170: 4eb9 02bb 2c20 303b d0b6 453d 3cde 9bbd
00000180: dada 9dbd ebe8 863b 013e 5dbd ebed f5bc
00000190: 9270 07bc 0453 403d 1711 7ebc a7c9 943c
000001a0: 0af5 31bd 541d 9bbd 7dbd f63b 475e bebc
000001b0: ab1a 67bc 0e30 173d 4f38 1f3b 7147 f2bd
000001c0: bd1c c7bc c776 a5bc e5f4 63bd 333c 833d
000001d0: 79c3 b8bc ac98 e3bb 2d3a 963d fdb1 8d3d
000001e0: 3c56 18bc 13b4 72bd f3b7 89bc 4a1f 4d3c
000001f0: fe5b abbd 81c6 9b3d 4857 953d a257 4abc
00000200: 7d8e f33d e926 8cbd b489 27bd 7cf6 e8bc
00000210: 6d2f 36bd 0669 9a3c c076 ee3c 158e 33be
00000220: 64fa d5bb 2df5 e63c bf95 9b3d 0e74 163d
00000230: a702 48bd ffc6 e8bc 8359 76bc 544f 87bc
00000240: 2f31 70bd ea5c 1d3d f0da 09bd 1fa4 d6ba
00000250: 4fd7 c2bc f4c6 ff3a 13b6 86bd aec9 05bd
00000260: 4a8a c2bc 6b04 6dbc 74f3 04ba 4f3a 07bd
00000270: 870c 00be bcc5 e13c f998 9e3c 0cf9 053c
00000280: ad0b 1fbd 99bf e6bc a65a 5b3b abc3 3ebd
00000290: 884f a9bd d8a9 aa3d a0ed 8abb 78c5 f6bc
000002a0: 5092 49bd c200 853d 6156 7dbd 289e 583b
000002b0: ed66 b63c 0d27 59bc 2d54 72bb 314e 463c
000002c0: f545 62bd 20a9 8e3b 29f6 3b3d 1dbf 04bd
000002d0: b964 c53c fc2f 3e3b 70c5 b03d 2007 05bd
000002e0: 36a0 733d 2229 80bc 32d1 c0bb 9649 f23c
000002f0: 32fe 303d ed5e 2a3d 68ec 6239 7b44 4e3d
00000300: 55ea c43c 4f48 81bd 3854 16bd a7a7 6cbc
00000310: 70fa 9bbc 12ff d9bd a584 a8bc 607d bfbc
00000320: 2ef1 62bd 9eca 8f3c f52d 19bd 4706 30bd
00000330: a037 c73c 133b edbd 5388 debc 0b11 01bd
00000340: 4397 1a3d d0d1 68bc 0e9d 68bd 944b c93c
00000350: 78c5 193d 2554 edba 5d87 4abc 1f50 cebd
00000360: c242 9f3d adeb 12bd 050b 8b3d d1e9 06b7
00000370: 26ae e93c 034c 06bd 4fae 543d cd3f 803c
00000380: 216b ea3d bf75 613d f239 5dbd 8fa5 a7bc
00000390: edd5 11bd 6a3d bbbb da61 213d c9ae 0ebe
000003a0: 9b31 753b d880 18bc a9dc da3c ec57 b2bd
000003b0: eae7 fcbb 5d28 6d3b 8f94 743d 74cc eabc
000003c0: d460 063d af19 93bc 4114 90bd dc6a b8bd
000003d0: 2dd4 50bd 1a37 893c b548 163d 5c72 4d3d
000003e0: 1a1d 3a3c 19bf 42ba 9315 34bd db83 bc3d
000003f0: 5320 d73c afaa ffbc 1865 1bbd 6ac5 34bd
