models/sony_images/states/tf_export/g_conv6_1/biases.npy (npy, 1152 bytes, 1 tensors)

array f4 [256]
-0.16594724 -0.09525677 -0.10865124 -0.1254522 -0.20146075 -0.12232805 -0.092101775 -0.17688672
-0.044681896 -0.020746402 -0.1610912 0.053788397 -0.12610704 -0.03816705 -0.05446076 -0.017102705
0.051976617 -0.10719899 -0.26006526 -0.01058772 -0.17457102 -0.07108696 0.01652582 0.06667117
-0.15103887 -0.033425845 -0.21090667 0.10450316 0.076171644 0.053492587 0.024621248 0.041136038
-0.07053584 -0.16881347 0.040605348 -0.08395243 -0.06572398 -0.14850563 -0.094491474 -0.15873633
-0.012651525 -0.055215113 -0.03380894 0.025902076 -0.036111996 0.005752208 0.047970537 -0.17968294
-0.059026167 0.055529974 -0.32688335 0.0040211747 0.02693522 -0.18707591 -0.15496236 -0.14434434
0.019236978 -0.24991748 0.02653569 -0.06395942 -0.13480963 0.041785423 0.03105168 -0.1718956
-0.014675479 0.01395457 -0.06936029 -0.15580508 -0.036315203 -0.12405942 0.007890539 -0.04093069
-0.100871764 -0.09635293 0.049637694 -0.14592145 -0.05978881 -0.039147183 -0.0921048 -0.097124964
0.07893545 0.023882298 -0.058540124 0.0006568704 0.15378813 0.12743229 -0.08492129 -0.24335355
-0.08579201 0.009569929 -0.09378341 0.0106951 -0.07667076 0.031168425 -0.076749496 0.009623051
0.023353538 0.00623317 0.053346533 -0.09592582 0.021334808 -0.16200966 -0.22587287 0.012528755
-0.005554842 0.035466913 -0.13038887 -0.014004516 -0.04507187 -0.14175358 -0.0642324 -0.18892194
-0.13661698 0.018032387 -0.021967016 -0.12262658 -0.1146979 8.177031e-05 0.065407544 -0.011092785
0.084490396 -0.07969402 -0.10781247 -0.08621099 0.09783506 -0.05131077 -0.17040172 0.016394077
0.026016414 -0.08969374 -0.15231977 0.024874672 0.035370752 -0.13234536 -0.068283565 -0.038787264
-0.0234559 -0.12883233 0.08292163 -0.07123965 -0.08674586 -0.08452714 -0.06482802 -0.07989626
-0.13786083 0.008629997 -0.013003166 -0.08595808 -0.013621608 0.0081474995 -0.10270836 -0.09715973
-0.07811527 -0.08640625 -0.028563455 -0.004497859 0.040103395 -0.17506658 -0.09965563 0.036372542
-0.111558214 -0.0981895 -0.101448864 -0.029485045 0.13291301 -0.038251203 -0.035638686 -0.016496893
0.053269222 0.01442089 -0.018904155 -0.07588479 -0.05037828 0.034280483 -0.06810114 -0.087074794
0.06556742 0.074022114 -0.17393667 0.14885211 0.080684364 0.06335624 0.040395632 -0.011468727
0.008653491 0.118110225 -0.031586092 -0.051696178 -0.14474575 -0.05434085 -0.04299698 -0.048366603
0.08389549 0.06107908 -0.1092304 -0.016114332 -0.17599697 -0.06884746 -0.12390511 -0.031118724
-0.12388375 -0.030024795 6.035302e-05 0.029344797 -0.003768649 -0.012714887 -0.061261572 0.03499943
-0.028717648 0.16643603 -0.10935377 -0.19544604 0.023359498 0.03961186 0.03179698 -0.12810588
0.11566807 0.059389383 -0.073819004 0.01760322 0.027387647 -0.013415508 -0.05416227 -0.11809546
-0.13448064 -0.108975075 -0.042940915 -0.044275388 -0.040832855 -0.042315178 0.004604361 -0.15510623
-0.16989805 -0.025144823 0.013681132 -0.14096212 -0.051333632 -0.1952586 -0.14243364 -0.123781644
0.11010584 -0.020039039 -0.10869413 -0.05774516 -0.032162003 -0.19887808 -0.1322264 -0.08262137
-0.13024294 -0.08076339 -0.15487751 0.042690955 0.048578538 -0.008646725 -0.06540347 -0.20047854
00000000: 13ee 29be fb15 c3bd 8b84 debd 8b76 00be
00000010: ba4b 4ebe 2187 fabd db9f bcbd cb21 35be
00000020: 5d04 37bd 5cf4 a9bc 17f5 24be 3951 5c3d
00000030: 3422 01be 0d55 1cbd 3f12 5fbd f91a 8cbc
00000040: 6fe5 543d 258b dbbd 4627 85be 1e78 2dbc
00000050: bfc2 32be 0a96 91bd 2861 873c e58a 883d
00000060: efa9 1abe 8ae9 08bd ebf7 57be c105 d63d
00000070: e1ff 9b3d 0b1b 5b3d 80b2 c93c 437e 283d
00000080: 1875 90bd 70dd 2cbe cb51 263d 40ef abbd
00000090: 4b9a 86bd dc11 18be bf84 c1bd c78b 22be
000000a0: 5848 4fbc 3e29 62bd 3e7b 0abd 9730 d43c
000000b0: 2cea 13bd 057d bc3b c17c 443d cefe 37be
000000c0: 6cc5 71bd 6673 633d 415d a7be 0fc4 833b
000000d0: 40a7 dc3c d490 3fbe 74ae 1ebe 01cf 13be
000000e0: de96 9d3c 5eea 7fbe 6061 d93c 28fd 82bd
000000f0: 890b 0abe 3127 2b3d 1860 fe3c 6605 30be
00000100: 6c71 70bc b5a1 643c c50c 8ebd 5e8b 1fbe
00000110: 40bf 14bd dd12 febd 5247 013c f0a6 27bd
00000120: db95 cebd af54 c5bd e550 4b3d 6f6c 15be
00000130: 1ce5 74bd cc58 20bd 71a1 bcbd 74e9 c6bd
00000140: e9a8 a13d cfa4 c33c c5c7 6fbd d431 2c3a
00000150: a37a 1d3e 9c7d 023e 37eb adbd ac31 79be
00000160: b9b3 afbd 31cb 1c3c 8411 c0bd 803a 2f3c
00000170: 8f05 9dbd ed54 ff3c d72e 9dbd 00aa 1d3c
00000180: eb4f bf3c 9f3f cc3b e581 5a3d c274 c4bd
00000190: 56c6 ae3c dce5 25be 384b 67be 6845 4d3c
000001a0: 6405 b6bb c145 113d a984 05be 3373 65bc
000001b0: 489d 38bd da27 11be 478c 83bd c174 41be
000001c0: 52e5 0bbe a8b8 933c 2cf4 b3bc a523 fbbd
000001d0: bce6 eabd 1a7c ab38 64f4 853d 83be 35bc
000001e0: 4d09 ad3d 9e36 a3bd c9cc dcbd 638f b0bd
000001f0: bf5d c83d 3e2b 52bd ca7d 2ebe df4c 863c
00000200: 6020 d53c 5ab1 b7bd b7f9 1bbe f8c5 cb3c
00000210: ece0 103d 8b85 07be 41d8 8bbd 65df 1ebd
00000220: 9626 c0bc 9fec 03be d1d2 a93d 18e6 91bd
00000230: d0a7 b1bd 911c adbd 8ec4 84bd a6a0 a3bd
00000240: 642b 0dbe d564 0d3c 3b0b 55bc ca0a b0bd
00000250: 2a2d 5fbc 177d 053c c358 d2bd aefb c6bd
00000260: e6fa 9fbd c3f5 b0bd e8fd e9bc c762 93bb
00000270: 7543 243d a744 33be 4018 ccbd 60fb 143d
00000280: a278 e4bd 9417 c9bd 6cc4 cfbd 9f8a f1bc
00000290: 591a 083e 4bad 1cbd dff9 11bd 7e24 87bc
000002a0: d430 5a3d 9945 6c3c e3dc 9abc 7c69 9bbd
000002b0: 7559 4ebd b169 0c3d 9c78 8bbd 4554 b2bd
000002c0: 3648 863d e898 973d 741c 32be b06c 183e
000002d0: d83d a53d ebc0 813d e475 253d 54e7 3bbc
000002e0: 5fc7 0d3c c6e3 f13d 6b60 01bd 5fbf 53bd
000002f0: 3b38 14be 8394 5ebd 9a1d 30bd 0f1c 46bd
00000300: 66d1 ab3d 0f2e 7a3d 30b4 dfbd 3402 84bc
00000310: 8d38 34be e6ff 8cbd f6c1 fdbd b2ec febc
00000320: c3b6 fdbd 8ff6 f5bc 9023 7d38 8064 f03c
00000330: 70fb 76bb 1a52 50bc 6aed 7abd 905b 0f3d
00000340: 4641 ebbc 356e 2a3e dff4 dfbd 0223 48be
00000350: 6b5c bf3c 0c40 223d 8d3d 023d 302e 03be
00000360: 62e3 ec3d 4842 733d 6b2e 97bd a134 903c
00000370: 0f5c e03c b8cc 5bbc 42d9 5dbd 08dc f1bd
00000380: 4bb5 09be 532e dfbd d0e2 2fbd 1c5a 35bd
00000390: 5a40 27bd ae52 2dbd 2ee0 963b 2bd4 1ebe
000003a0: c1f9 2dbe 84fc cdbc d426 603c 6058 10be
000003b0: 3743 52bd dff1 47be 20da 11be 3b81 fdbd
000003c0: 2c7f e13d e928 a4bc 079b debd 3086 6cbd
000003d0: 4ebc 03bd b2a6 4bbe 5b66 07be 6535 a9bd
000003e0: 685e 05be 4767 a5bd 3698 1ebe b6dc 2e3d
000003f0: 4afa 463d feaa 0dbc 41f2 85bd 3f4a 4dbe
