models/sony_images/states/tf_export/g_conv1_1/weights.npy (npy, 4736 bytes, 1 tensors)

array f4 [3, 3, 4, 32]
000000 eb 0c 56 be 5a 84 b6 bd 21 b4 02 be 22 31 bb bd
       -0.20903365 -0.08911963 -0.12764026 -0.09140231
000010 20 5a 0a 3e 4b ad 99 3d 41 e8 d0 bd 0f 2e 28 3d
       0.13510942 0.07503756 -0.10200549 0.04105955
000020 5e 85 32 be 48 0e 30 bd cd 66 c1 3d 00 5d 6e bd
       -0.17433688 -0.04298237 0.09443436 -0.05819416
000030 a3 20 a8 bc a3 43 21 3e 55 8f 1e be fb 13 39 3e
       -0.020523375 0.15748458 -0.15484364 0.18074028
000040 2f f4 aa bd d6 f4 07 be e4 ee e7 3d b9 f1 0d be
       -0.083473556 -0.13276991 0.11324862 -0.13861741
000050 a3 cd 06 3d ba 30 71 3d 65 ab df bd 5b 7c 8e 3d
       0.032910954 0.05888436 -0.10921363 0.06957313
000060 af 37 ab 3d 99 5f c0 bd 43 c3 2e bd cf 11 98 3d
       0.0836023 -0.09393234 -0.042666685 0.07425272
000070 d9 57 3a bd 83 bf fd bb 5a 49 50 be 13 4e de bd
       -0.045493934 -0.0077437772 -0.20340481 -0.10854735
000080 4d 14 8e 3d 18 c9 85 3d 95 c0 03 3d 08 16 57 bd
       0.06937466 0.06532496 0.032166082 -0.052511245
000090 78 68 12 bb d8 13 15 bd 8f aa d9 bd 4f a4 29 be
       -0.00223401 -0.036395878 -0.106282346 -0.16566585
0000a0 c3 9f 30 bd ef 20 a0 3d b1 68 20 be 15 f2 b1 bd
       -0.04312111 0.078187816 -0.15664937 -0.086887516
0000b0 2d f5 b7 bd 2c c4 c2 bd cf 74 c2 bc 2c 32 2d bc
       -0.089823104 -0.09510073 -0.02373734 -0.010571044
0000c0 4c a3 22 3d 89 4e 05 3a 76 72 c2 bd 49 32 20 be
       0.039706513 0.000508525 -0.09494488 -0.15644182
0000d0 b2 a1 8d bd b3 8c d1 bd 22 66 03 be 48 2f b6 bd
       -0.069156066 -0.10231914 -0.1283193 -0.08895737
0000e0 bf 56 2b 3d ab 19 2e bc db e5 33 bc 55 59 00 be
       0.041830774 -0.010626237 -0.010980095 -0.12534077
0000f0 22 4d 02 3e 50 7b 23 bc fd 71 f8 3b 0d a4 4a bc
       0.12724736 -0.00997813 0.007581948 -0.012368214
000100 86 9f 5f 3d 24 a9 f3 bd 47 9d a7 3d 76 57 b3 3d
       0.054595493 -0.118974954 0.08184295 0.08756916
000110 85 d9 8d bd 97 69 69 bd 25 69 fc bd 20 a1 a8 3b
       -0.06926254 -0.056985464 -0.12324742 0.0051461607
000120 fd 5f a2 bd c6 42 56 bd 6e 79 08 3e 04 32 46 bd
       -0.079284646 -0.052309774 0.13327572 -0.048387542
000130 68 61 bf bc a5 a5 27 be cb d9 bf bd 05 c2 34 bc
       -0.023361877 -0.16371782 -0.093677126 -0.011032586
000140 fa 6c e5 3b e7 d4 ce bd 8c 22 d3 bd 5c 4d 08 bc
       0.0070015164 -0.10099202 -0.10309324 -0.008319225
000150 9a e5 aa 3d 60 f2 28 3d 3b 84 a6 3d b2 52 22 3e
       0.08344574 0.04124677 0.0813069 0.15851858
000160 84 7d 0d 3e b5 9b 3b bd 01 ff 14 3d 2b a3 94 bd
       0.13817412 -0.04580279 0.036376003 -0.07257684
000170 ea 6d f2 bd 2a 6e 15 be ef 75 7d 3d 1f 12 fe bd
       -0.11837371 -0.14592806 0.06188005 -0.124058
000180 ad 87 e1 3d 5e 24 05 3e ed 51 3a 3d e5 3b b7 3d
       0.11012206 0.13002154 0.045488287 0.08946971
000190 b0 2d c6 3b 42 86 cb bc d4 30 8d bd bb 29 f8 bd
       0.006047927 -0.024844293 -0.06894079 -0.121173345
0001a0 72 c6 8a 3d c2 d8 da 3c 31 2d 12 be b5 3b 2d be
       0.06776132 0.026714686 -0.14275052 -0.16917308
0001b0 ad 58 f3 3d 94 27 84 3d c3 b9 73 bd 82 54 2c 3b
       0.11882148 0.064528614 -0.059503328 0.0026295488
0001c0 e3 6a 8a 3d 8f 6c 6c 3d a0 0d b0 bd 56 a5 80 bd
       0.06758668 0.057720717 -0.08596349 -0.06281535
0001d0 63 2a 56 bc f4 1c 73 3d 39 f0 0c bd 13 47 1d be
       -0.013071629 0.059353784 -0.03440878 -0.15359144
0001e0 97 4f aa 3c 7e 1f 40 bd 00 28 61 3c d2 87 b8 bc
       0.020789905 -0.046905033 0.013742447 -0.022525702
0001f0 d2 a4 e6 3d 8d 2d b0 bd e8 54 ae bc 9d 52 c5 bd
       0.11261906 -0.08602438 -0.02128072 -0.09634898
000200 85 bb 14 be 18 00 9c 3d 23 51 6e 3d c4 25 6f 3c
       -0.14524658 0.076172054 0.058182847 0.014596406
000210 e2 bd 0a bc 08 bb 9b 3d a0 ed 0a 3d 03 ea e7 bd
       -0.008468123 0.07604033 0.033918023 -0.11323931
000220 18 25 a0 bd 1c 47 43 3d 58 7b a2 3d 94 69 0c 3e
       -0.07819575 0.047675237 0.07933682 0.1371215
000230 a4 38 42 3d 17 2a 3c 3c 8b 07 7a be 4e e2 a8 3c
       0.047417298 0.011484644 -0.2441694 0.020615723
000240 69 d0 55 3d 48 16 85 3d 0a 24 bb bd f4 6a 52 bd
       0.05220071 0.064983904 -0.09137733 -0.05137153
000250 76 27 4e be 9a 3e 32 3d d3 3a 44 bd 93 84 9b 3d
       -0.2013224 0.043516733 -0.04790766 0.07593646
000260 07 1f e3 3d 39 8e 19 bc 00 6d 95 3d f1 2c 09 bd
       0.11089902 -0.009372287 0.07296181 -0.033490125
000270 fb 0d cd bd 28 24 c3 3c a8 48 ba bd 01 b5 4d 3d
       -0.10012432 0.023820952 -0.09095889 0.050221447
000280 cf 9c de 3d 49 02 f6 bc bd 01 07 be 18 8e 10 be
       0.108697526 -0.030030387 -0.13184257 -0.14116704
000290 7a 49 e3 3d d6 b7 fe bc d1 b4 85 3d bc e7 09 be
       0.11097999 -0.03109352 0.065286286 -0.13467306
0002a0 01 24 09 3e 78 3a f9 3d ed 18 f0 bd 5d 52 9a bd
       0.1339264 0.12169355 -0.11723504 -0.07535241
0002b0 84 1c df 3d 29 3c 25 3e 3d 1e b6 bd 2e 32 0b be
       0.10894111 0.1613623 -0.08892486 -0.13593361
0002c0 bc 64 d3 3d ff 99 b0 bd 23 11 8a 3c 56 b1 3d bd
       0.10321948 -0.086231224 0.016853875 -0.0463117
0002d0 ad 34 d2 bd a7 8e 87 bd 2a b1 27 be 82 30 4d 3c
       -0.10263953 -0.06619006 -0.16376176 0.012523772
0002e0 82 38 fc bd 69 04 30 3d 5b 78 2f 3e 24 03 1e 3e
       -0.123154655 0.042972956 0.17135756 0.15430886
0002f0 44 ff 22 bd 91 16 cb 3d 87 e9 d7 bd be b7 c9 bc
       -0.03979422 0.099164136 -0.10542589 -0.024623748
000300 8a d3 ef bc 24 81 d2 bd 3d bb a0 3d 4c 10 7e 3d
       -0.029275674 -0.10278538 0.07848213 0.06202726
000310 26 64 e2 bd bc 14 2d be b5 d8 4c 3c 36 be 18 3d
       -0.11054258 -0.16902441 0.012502839 0.037290774
000320 81 0a b8 bd 6e 0e 16 3d c3 5b 35 3d a8 0a 87 3d
       -0.089863785 0.036634855 0.044276964 0.065938294
000330 cf 0d 69 3d 0d c3 73 bc b0 fa 65 bc 57 1d b2 3d
       0.056897935 -0.014878047 -0.014036819 0.086970024
000340 b6 95 25 3d 7a ff 9e bd f6 4d d1 bd 25 26 bf bd
       0.04042598 -0.07763572 -0.10219948 -0.09333447
000350 49 f0 d0 3d 01 a4 15 be e3 a7 9f 3c 18 fd cb bc
       0.10202081 -0.14613344 0.019489234 -0.024900958
000360 86 da 92 3d 88 cf 03 3e d1 4a ce 3a 51 3b f6 bd
       0.07170586 0.12872136 0.001573885 -0.120230325
000370 a1 86 00 bd 1d 67 c4 bd 8d 89 49 3d d4 a5 ee bc
       -0.031378392 -0.0958998 0.049203444 -0.029131807
000380 9d 5f bc 3d d0 cd a5 bc 1f e3 0c 3d ec 40 19 be
       0.09197924 -0.02023974 0.034396287 -0.14966172
000390 21 7a 20 3c 99 43 02 be 85 69 59 bd 9b 28 03 3e
       0.009794743 -0.12721099 -0.053079147 0.12808459
0003a0 9b 13 97 bb 11 71 0c 3e ef aa 1d be a0 09 c2 bb
       -0.0046104915 0.13715006 -0.15397237 -0.0059215575
0003b0 56 28 42 bd d5 6a d1 bd 92 26 02 3e 28 8c a2 bb
       -0.04740175 -0.10225455 0.12710026 -0.0049605556
0003c0 44 62 0d be 60 d8 97 3d 4b ed 19 3c cc 7a e9 bd
       -0.13807017 0.07414317 0.009394954 -0.11400375
0003d0 56 db 61 3d 11 b7 30 3b dd ea db bd bb 6f c6 bd
       0.055140816 0.0026964585 -0.10738156 -0.0968928
0003e0 2e 05 49 bd ef b3 06 bd b0 22 a4 3d aa 0c f3 bd
       -0.049077205 -0.03288644 0.080144286 -0.1186765
0003f0 26 52 8b 3d e7 4c eb 3d f7 c1 cd bd 32 70 82 3d
       0.06802778 0.11489277 -0.100467615 0.06369056
