models/sony_images/states/tf_export/g_conv7_1/biases.npy (npy, 640 bytes, 1 tensors)

array f4 [128]
000000 e8 87 1f be 22 b6 23 3d bb fe b0 bc 9f 5d a0 3d
       -0.15579188 0.039968617 -0.02160584 0.07830357
000010 07 ab 54 bc 3f 85 07 bd a8 b2 c6 bd 6d 18 e0 bd
       -0.012980229 -0.033086058 -0.09702045 -0.10942159
000020 0e fa a1 bd 95 20 78 3d 32 cb 4e bd b3 66 ce bd
       -0.07909022 0.060577948 -0.05048675 -0.10078182
000030 c2 38 78 bd ab ad 82 bd 5a dd 52 bd 1c 86 cb bd
       -0.060601003 -0.06380781 -0.05148063 -0.09937689
000040 96 28 05 bd 02 ba 05 be 93 da 1a be 19 19 08 be
       -0.03250941 -0.13059238 -0.15122442 -0.13290824
000050 f6 3d bc 3c 65 00 71 3d 6b be e3 3c 1b 18 0a be
       0.022978764 0.058838267 0.02780076 -0.13485758
000060 50 1c a6 bd 59 0c c8 bd 20 37 de bd 6b 1a 0d 3d
       -0.08110869 -0.0976798 -0.10850358 0.034449022
000070 60 1a 18 be 55 05 c6 bd 80 8d 99 3c fc c3 73 bd
       -0.14853811 -0.09668986 0.01874423 -0.059513077
000080 87 31 7c bd 0b 68 0c be 4b 62 37 bd f7 14 d2 bd
       -0.06157067 -0.13711564 -0.044771474 -0.10257905
000090 ae 2c 6d 3d 5f 68 b2 bd 2d 41 c4 bd 7c f6 6e 3b
       0.057903938 -0.087113135 -0.09582744 0.0036462834
0000a0 0f 6c cc bc c9 45 5e bc ac 60 34 3c e5 55 ae bc
       -0.02495387 -0.013566443 0.0110093765 -0.021281192
0000b0 17 b4 be 3c a3 d8 8e bd 17 ae 8c bd d8 9f 6d be
       0.023279233 -0.06974914 -0.068691425 -0.23205507
0000c0 e5 9c 42 bd fb c4 e0 bd 99 d7 c9 bd a9 46 8b 3c
       -0.047512908 -0.10975071 -0.09855575 0.017001467
0000d0 7c 3c fd bc 9f 8a 83 3d db c8 3c bc a9 bd bc bd
       -0.03091263 0.06422924 -0.011522497 -0.09215862
0000e0 99 d2 1f bb 91 c5 80 3d b2 58 79 3b bf f2 97 3c
       -0.0024387 0.06287683 0.0038047251 0.018548368
0000f0 0b ac f4 bd dd 21 95 bd 28 07 45 bd 4d ba 13 3c
       -0.11946877 -0.072818495 -0.048102528 0.009016586
000100 45 cf 75 bc 83 51 99 3d 09 5c 0c be 68 11 37 bd
       -0.01500303 0.0748625 -0.13706984 -0.044694334
000110 03 de a3 bd f3 f0 27 be 43 8b 32 3c df 00 05 be
       -0.0800133 -0.16400509 0.01089746 -0.12988614
000120 f8 ee b1 3d 60 cc ca bd f5 04 aa 3c 4c d4 46 bd
       0.08688158 -0.09902263 0.020754317 -0.048542306
000130 8e e2 8d 3d 7d 22 50 bc 3a ee ef bc b4 27 9d bc
       0.069279775 -0.012703535 -0.0292884 -0.019183971
000140 39 f5 39 be 8e c7 b4 bd 99 70 2d be f1 6b 49 bc
       -0.18159951 -0.088271245 -0.16937484 -0.012293802
000150 01 35 e7 3c 83 6e 44 bd d0 f0 9e bd 56 f4 7f bc
       0.028223516 -0.047956955 -0.07760775 -0.015622219
000160 d0 40 1b be f7 49 67 be 5e f3 22 be ff f3 f4 bd
       -0.15161443 -0.22586809 -0.1591315 -0.11960601
000170 7a 0f e5 bd 59 de 98 bd 14 4f cd 3b 68 78 fd 3c
       -0.111845925 -0.074642844 0.0062655304 0.030941203
000180 32 ea 0b be 00 6e 56 bd d9 a1 a0 3c 04 a2 8c bd
       -0.13663557 -0.052350998 0.019608425 -0.068668395
000190 dd 58 44 bd 8f 4d 94 bd 9e 3a 34 3d a6 92 5f bd
       -0.04793631 -0.07241356 0.044001214 -0.054583214
0001a0 ff c1 15 be d0 ea f7 3c c0 c2 76 3d 7b 90 03 bd
       -0.14624785 0.030263335 0.06024432 -0.03212021
0001b0 01 33 13 be 18 a4 15 be 71 33 6f bc 76 32 0b be
       -0.14374925 -0.14613378 -0.014599667 -0.13593468
0001c0 0c 9c b4 bd fa 18 78 bc 20 17 fe 3c 05 cf 00 bd
       -0.08818826 -0.015142674 0.031016886 -0.03144743
0001d0 53 5f ef bd b9 ed cf 3c 30 c0 f0 bd 5e 53 a3 3c
       -0.116881035 0.02538191 -0.11755407 0.019937214
0001e0 0c 12 97 3c 35 a7 96 3c ed 75 aa bd db 6d 60 bc
       0.018441223 0.018390277 -0.08323274 -0.013698067
0001f0 f6 ae c0 bd 7c 2b 22 be c4 00 02 be 6c 6b e7 bc
       -0.09408371 -0.158369 -0.12695605 -0.028249465
