models/sony_images/states/tf_export/g_conv4_2/biases.npy (npy, 1152 bytes, 1 tensors)

array f4 [256]
00000000: 2d30 15be d257 ccbd 4855 b2bd b3db 66bd
00000010: 926f 893b 8537 78bd 6890 483c 9be7 51be
00000020: 56a4 a0bd 3a12 f2bd fed8 a3bb dce9 1dbe
00000030: 2b96 d1bd 7eba 79be 2abf 0abe d23c 49be
00000040: 357a d43c a361 a3bd 6716 20be 32b9 fbbd
00000050: 1914 11bd 6965 3ebe f7ae 74bd 5e09 d9bd
00000060: 8cee 55bc c268 2abe 1758 39bd 5221 4dbe
00000070: e3ae e7bc ea37 25bd 1fa2 f2bd 6646 dbbd
00000080: 728b b8bd 20b4 77bd 60c8 4fbd ddce 47bd
00000090: ba13 7cbd 268e b0bc f705 adbd 05a1 3ebe
000000a0: 6fb7 c8bc 0cfb df3c 405d 6cbd c1be fabd
000000b0: 30e4 19bd 5ae2 d9bd 31dc 02be be88 c0bc
000000c0: 5bf0 ecbd d295 ebbd 837f c8bd e9db 04be
000000d0: 2452 23bd 1b53 43be fc8c 03be 3272 0a3d
000000e0: 3dfa 18be abf9 acbd ce60 22be eba8 e6bd
000000f0: 5724 21bd 0b95 473d c005 d2bd 84c3 02be
00000100: 3a0e e9bd a783 9dbd 7600 463c 9e11 2ebe
00000110: f6d3 95bd 69c4 c63c 198c d3bd 7265 87bd
00000120: c2e0 14be e173 f1bd fc39 15bd debc a3bd
00000130: 7197 ccbd b56f 40bc db69 dabd 2cd4 ebbb
00000140: 0f47 2fbd 1573 6cbd 5ef2 153e 77c2 03bd
00000150: fe03 8bbd 3033 0cbe 215d dbbd e347 363c
00000160: 3357 2abe 742a 8fbc f75a a1bd 7c35 4bbe
00000170: 420a 5f3c 05f2 683d 36a2 7abd 69c6 b8bd
00000180: d0c8 07bc ebd7 803c 9db1 e7bd 5681 a1bd
00000190: 6606 22be 8a85 2bbe 5634 b6bd ab92 813c
000001a0: 65db 35be ae8e ccbd efdb cfbd d7a9 20be
000001b0: 6b8f 53bc 03b7 c6bd 7860 05be 05c9 29bd
000001c0: db52 95bd 0b6a a8bd 2cb9 903b b410 04bc
000001d0: f7af d5bd 940a e7bd 8224 91bd 42d2 26be
000001e0: f02e 18be 9b0e 06be d820 95bd 065c 1c3e
000001f0: 87b1 08be c695 ea3c c9ce 573d 2efd e0bd
00000200: bb9b d73c 16c2 39be 4fca 5dbd d405 33be
00000210: 0a30 2ebe 7bb1 3dbe a45b a7bd 8a24 663d
00000220: 3ae8 ddbc 031b 28be d546 ba3d e827 9abb
00000230: aa97 14be 73b0 52bd a897 70be 45e4 29be
00000240: 512c d4bd 63e2 bfbd 71b8 1cbe 38e1 66bd
00000250: cadf 90bd c40e 8abd 5710 3cbe 34cb 50be
00000260: fa51 30bd 3df4 153d 1264 7fbc 6c30 e4bd
00000270: c607 8fbe 2939 7cbd 8880 01be e218 9fbd
00000280: 31c8 e0bd 4c24 b6bb 8b97 743d 5066 bbbd
00000290: 3da5 f5bc 629e e03d fa6f c3bc fc86 103d
000002a0: 5b93 1bbe db56 a43c 0e60 fabd 8e38 e5bd
000002b0: 25bb 823c 8a42 9c3d 4ada aabd cd51 00be
000002c0: 27f8 fe3b b096 debd f953 febd 28e6 863c
000002d0: c649 9bbd 4f1a 81bd 9dd5 1ebe 4331 0ebe
000002e0: 5f7b 10be c187 673d f237 36be e098 17be
000002f0: f6e7 92bc 9781 00be 32cf f63c 0847 46bd
00000300: 7f75 b43d 302a 13be 4427 3cbc 1aed d03a
00000310: 7918 4cbe 2f0f 343d e147 35be 5ee7 00bd
00000320: bc17 5cbd 07fa f4bd 7f75 773d 036c b43c
00000330: 1f26 a7bd f299 3eb8 0d4f 76be 4847 3fbe
00000340: 306c 8e3d 1252 0dbd 477c 4abe 7e37 d8bd
00000350: b08a 24be 5908 e9bd 7985 05bb 7fe7 c5bb
00000360: 21b9 cfbd 6d8d a1bd 6d3e 95bd f551 86bc
00000370: 5727 0bbe f266 f83c 1b6a debd c0ea a539
00000380: d168 40be b90c bebd b63c 69bd c0a6 18be
00000390: 2357 bcbc eb63 43be 2fdb 61bb b5ca 0ebd
000003a0: 960a 39be 0b41 543d 5b61 34be d539 0abd
000003b0: ffda 14bd db51 b4bd e6a6 89bc 586d 38bd
000003c0: 963a 72bd 7d78 f9bd cf5f 20bd d236 b9bd
000003d0: fa09 06bd da6c 48be f87f 44bd cdee 0fbe
000003e0: 69ab d3bd 5063 71bd 63ac a33c cdec d1bd
000003f0: 46c5 39bc 0fc5 94bd a169 99be 2119 8abe
-0.14569159 -0.09977688 -0.08707672 -0.056361865 0.0041942084 -0.060599823 0.01224146 -0.20498507
-0.078438446 -0.11819883 -0.0050002327 -0.15421242 -0.102337204 -0.24387547 -0.13549486 -0.19652107
0.02593718 -0.07977607 -0.15633546 -0.122911826 -0.035419557 -0.18593372 -0.059737172 -0.1059749
-0.013057362 -0.16641524 -0.045250025 -0.20032242 -0.028281635 -0.040336527 -0.118473284 -0.10706787
-0.09010972 -0.060474515 -0.050728202 -0.048781265 -0.06154225 -0.021552157 -0.08448403 -0.18616112
-0.02450153 0.027341388 -0.057706118 -0.12243415 -0.037571132 -0.10638876 -0.12779309 -0.023502704
-0.11569282 -0.11503185 -0.09789946 -0.12974514 -0.039873257 -0.19074671 -0.1284675 0.03380031
-0.14939208 -0.08446058 -0.1585724 -0.11262687 -0.039341297 0.048726123 -0.10255003 -0.12769896
-0.113796666 -0.07691126 0.012085071 -0.16998908 -0.07315819 0.024263578 -0.10329456 -0.06611146
-0.14538863 -0.1178968 -0.03643225 -0.07995008 -0.09989823 -0.011745383 -0.106647216 -0.0071969237
-0.042792376 -0.05772694 0.14643237 -0.032167878 -0.06787871 -0.13691401 -0.10711122 0.011125538
-0.16634826 -0.017476298 -0.07878678 -0.19844621 0.0136132855 0.056871433 -0.061189853 -0.09022219
-0.0082876235 0.015727958 -0.11313174 -0.07885997 -0.15822753 -0.1675016 -0.08896701 0.015817007
-0.17759474 -0.099881515 -0.10149371 -0.15689789 -0.0129126115 -0.097028755 -0.13025081 -0.041451473
-0.07291194 -0.08223351 0.0044166055 -0.008060623 -0.10433953 -0.112813145 -0.070870414 -0.16291144
-0.14861655 -0.13091509 -0.07281655 0.15269479 -0.13348971 0.02863587 0.05268744 -0.1098579
0.026319375 -0.18140444 -0.054148015 -0.17482692 -0.17010513 -0.18524735 -0.08171776 0.05618719
-0.027088273 -0.16416554 0.090955414 -0.004704464 -0.1451098 -0.051437806 -0.23495352 -0.16590984
-0.10360015 -0.09369352 -0.15304734 -0.05636713 -0.070739344 -0.067410976 -0.18365608 -0.20390016
-0.04304693 0.036609877 -0.015587823 -0.11142048 -0.27935618 -0.06157795 -0.12646687 -0.07768418
-0.109756835 -0.005558526 0.059714835 -0.09150374 -0.029986018 0.10967709 -0.023857106 0.03528498
-0.1519293 0.020060947 -0.12225352 -0.111924276 0.015958378 0.07629879 -0.083424166 -0.12531205
0.007781047 -0.10868585 -0.1241836 0.016467169 -0.075824305 -0.06303846 -0.15511174 -0.1388598
-0.14109562 0.05652595 -0.17794779 -0.14804411 -0.017932873 -0.12549435 0.030128095 -0.048407584
0.08811473 -0.14371562 -0.011483971 0.0015939802 -0.1993121 0.043959793 -0.17703201 -0.03147065
-0.053733572 -0.119617514 0.060414787 0.02202416 -0.08161568 -4.5442903e-05 -0.24053593 -0.18679535
0.06954229 -0.034502096 -0.1977397 -0.10557459 -0.1606853 -0.11378545 -0.0020373745 -0.0060395594
-0.101427324 -0.07888303 -0.072872974 -0.016396502 -0.13589226 0.030322526 -0.10860082 0.00031646155
-0.18789984 -0.092797704 -0.056942664 -0.1490736 -0.022990769 -0.19081084 -0.003446292 -0.034861285
-0.18070444 0.051819842 -0.17615263 -0.03374656 -0.036341663 -0.08804675 -0.016803216 -0.045026153
-0.059137903 -0.121811844 -0.03915387 -0.09043659 -0.03272436 -0.19572774 -0.047973603 -0.14055939
-0.10335428 -0.058932602 0.019979661 -0.10250244 -0.011338538 -0.072641484 -0.299634 -0.26972297
