models/sony_images/states/tf_export/g_conv8_2/weights.npy (npy, 147584 bytes, 1 tensors)

array f4 [3, 3, 64, 64]
00000000: c109 79bd 0c56 2f3d 59cc 403d 63f4 14be
00000010: e9ca 77bd a0b9 02bc d5a2 a83d 671f 0cbd
00000020: 4b35 5dba e9c3 d8bd 1416 9f3d db35 0b3d
00000030: 233c 62bd 6e73 2bbc e5e0 833c db2b b9bc
00000040: 752b 993d 975e a2bc fb2e 29bc 6dcb cbbc
00000050: 4a5a 39bd 6022 923c ae0c 783d fd16 c8bc
00000060: c5e1 203d 3f8b 633c e006 febc cbac e13c
00000070: e0d9 733d 876a 2bbd b515 c2bd 482b 793c
00000080: aad1 ec3c fe0f 08bd 5cb4 9f3c 3a0a 82bc
00000090: 03b2 2bbd 68f7 22be 2385 82bc 9f71 9ebd
000000a0: cffc 203c cb2e 59bc f37f e73b 1935 c6bd
000000b0: 522a 3d3c c7de 14bd ef5d 8ebd c7a7 9abd
000000c0: 0dc4 d2bb 0aa4 6e3d b9bb 5a3d ffa4 b73c
000000d0: 441e 443d 65f2 b63d 10fb 4ebd 2eb5 b0bd
000000e0: d719 c83d 7975 713d 876c d73c 6855 c8bd
000000f0: 2682 d4bd 5806 74bd 2f5a 6c3c e8f7 8a3d
00000100: ceee 0dbd 4ea3 c4bc b61a 15bd 60bf 413d
00000110: 95b1 8bbb 0659 76bd 7bf3 9bbd 8373 25bc
00000120: 7527 8cbc 9583 8cbd 2b00 80bc 9d54 f0ba
00000130: a276 173c 2591 573c fff0 9abd 6824 af3c
00000140: d568 313d 8501 5ebb 63cc c03c 6b94 28be
00000150: e5d6 eb3a eb36 b8bc c2b7 81bd 0cc8 003c
00000160: c128 99bd f855 8d3c 65f7 c8bd de4e 90bd
00000170: 3e72 b6bc e813 5e3d 7883 cc3c f17d 34bd
00000180: dfc2 fc3c 53e5 22bd 47f7 733d a724 ba3d
00000190: 37ff 7d3d 5dc5 d9bc ff63 13bc c6e9 89bc
000001a0: dacd 1b3d f65f 4f3c 4da8 b73a af7d 923b
000001b0: d8ad 253c 40a1 1cbd 54b7 b83d 1737 963d
000001c0: c96a 6dbd a766 29bd 3403 133d 09b2 3d3d
000001d0: 1ebd b9bd 15a1 8939 bb23 a3bd 2c7d 6a3c
000001e0: 5442 61bd 2ec4 6fbd e076 21bd 3402 813c
000001f0: 29ec 09bd db5e 6ebc 7d19 533b 7734 023c
00000200: 3ca6 8f3d 6b7e 5f3d b784 a5bb 2c42 003b
00000210: d192 983b fc8c 25bd 5cee 80bd 39ec 91bd
00000220: f051 cdbd 3b33 a33d 55f2 fa3d 20d3 663d
00000230: 9c3d 7c3d 7f70 b63d 23e8 25bd bd5f ddbd
00000240: ee30 c03b bee4 ac3d c478 77ba 1bd1 163d
00000250: af19 e2bc f5fc 67bd 8b2d 71bc 920c ff3c
00000260: 10d5 94bd 1587 5dbc de90 b0bd 028e 37bc
00000270: f76e 3cbd 6f95 acbd 465e 9cbc 4730 cd3c
00000280: d735 18bc 4ea0 b63c 459c e6bc db2b 23bd
00000290: 9a7d 823d 432a 85bd d2ef 003c abe2 99bd
000002a0: 2902 18bd 8d6b f03b 58e1 8f3d d175 c03d
000002b0: d167 913d 0678 af3d 87a9 82bd 181f 393c
000002c0: 64d1 91bc 63eb 22bd 898f 8cbd 7b8a 47bd
000002d0: 86b2 7c3d 7364 653c 1c89 a7bc cb6e 813d
000002e0: e60f 093d a761 143d ffc7 853d 71a2 00be
000002f0: f8be 03be 1c6f 01bd b7fc 1a3d 9c7e 143d
00000300: ac9e cabc aa4d 8b3d f39d 493c 37cf 893d
00000310: be52 58bc b5d5 533c 3238 a93d 2330 9d3d
00000320: 732b 7ebd 7715 fd3b 318c a4bd 5e63 e13c
00000330: 764c 8dbd f47a aa3d 58fe 51bd 7e2e aa3c
00000340: 357f f63c 90f1 663c 3498 c4bc cfb8 9c3a
00000350: 3976 2d3d 5d93 0bbd 3dc7 f8bc b9ea b5bc
00000360: a192 e83c 155c 97bd a068 f3bc 9e69 80bc
00000370: 48eb 4a3c 1990 41bc 37f0 0a3c 03c7 43bd
00000380: 317f 37bd f0bb 55bd d351 09bd 6b57 cb3c
00000390: 1cc1 7e3d b3cf d73c 84aa 653d 91a7 07bc
000003a0: f52d 2ebc 3715 703c c2b7 eabc bc19 3cbc
000003b0: 507c 6bbd 95b6 553c 6c43 313d 210f af3c
000003c0: 5f92 c43c 9e34 c03c 231f 703c 22c5 c43c
000003d0: 3c36 29bd d904 64bd 9789 9fbd 041a a1bd
000003e0: fc73 a2bd ebfd 283c d936 25bd baae 96bd
000003f0: ecf2 273d 9313 af3d 9ff4 d7bd 220f 0e3d
-0.060800318 0.04280667 0.04706988 -0.14546351 -0.060496245 -0.007978827 0.08234183 -0.034209635
-0.0008438422 -0.10584242 0.07767883 0.033986907 -0.055233132 -0.010464532 0.016098449 -0.02260392
0.07478992 -0.019820495 -0.010326142 -0.024877274 -0.045252122 0.017838657 0.060558967 -0.024425024
0.03927781 0.013888179 -0.031009138 0.027548214 0.059533954 -0.04184964 -0.094767965 0.015208073
0.02890857 -0.033218376 0.019495182 -0.015874017 -0.041917812 -0.1591469 -0.015932625 -0.07736515
0.009825899 -0.013255785 0.0070648133 -0.09678096 0.0115457345 -0.03634527 -0.0695151 -0.07551532
-0.0064320625 0.05826191 0.053401683 0.022417543 0.047880426 0.08932952 -0.0505324 -0.08628307
0.097705536 0.05894992 0.026296867 -0.09781915 -0.10376386 -0.059576362 0.014425798 0.067855656
-0.03465157 -0.024003651 -0.036402427 0.04730165 -0.004263113 -0.060143493 -0.076147996 -0.010098341
-0.017108658 -0.06861035 -0.01562508 -0.0018335764 0.009244593 0.013157164 -0.075654976 0.021379665
0.043312866 -0.0033875417 0.02353496 -0.16462867 0.0017993121 -0.022487124 -0.06333877 0.007860195
-0.07478476 0.017252907 -0.09812812 -0.07046293 -0.022271272 0.054218203 0.024965033 -0.04406542
0.03085464 -0.039769482 0.059561994 0.09089022 0.06201097 -0.026583368 -0.008996009 -0.016835105
0.038038112 0.012657156 0.001401195 0.004470549 0.010112248 -0.038239717 0.09019342 0.07334726
-0.057963166 -0.041357663 0.035891727 0.046312366 -0.09069274 0.00026250692 -0.079657994 0.01431207
-0.054994896 -0.0585367 -0.03942001 0.01574812 -0.033672486 -0.0145489825 0.0032211237 0.007947079
0.070141286 0.05456392 -0.0050512212 0.0019570692 0.0046561738 -0.040417656 -0.062954634 -0.07125134
-0.10025394 0.07968756 0.122532524 0.05635369 0.061582193 0.08908176 -0.040504586 -0.10809276
0.005865208 0.084420666 -0.0009440298 0.036820512 -0.027600138 -0.056637723 -0.014720331 0.031133924
-0.07267201 -0.013520976 -0.08621381 -0.011203291 -0.04600426 -0.0842694 -0.019087922 0.025047434
-0.00929018 0.022293236 -0.028150687 -0.039836746 0.06371613 -0.065022014 0.007869678 -0.075139366
-0.037111435 0.00733704 0.07025403 0.09397472 0.070998795 0.085678145 -0.06379991 0.011298917
-0.01780004 -0.039775264 -0.06863315 -0.04871605 0.06169369 0.014001 -0.020451121 0.0631996
0.033462428 0.03622594 0.06532287 -0.12561966 -0.12865818 -0.031600103 0.037838664 0.036253557
-0.024733864 0.068019226 0.012305724 0.06728976 -0.013203321 0.01292937 0.082626715 0.07675197
-0.062053155 0.007723506 -0.08034552 0.027513202 -0.068993494 0.08324233 -0.05126795 0.020774122
0.030089954 0.014095679 -0.023998357 0.0011956933 0.042349074 -0.034076083 -0.030368442 -0.022206651
0.02839023 -0.0739061 -0.029712975 -0.015675362 0.012385197 -0.011814141 0.008480123 -0.047797214
-0.044799034 -0.052181184 -0.0335253 0.024821958 0.062195882 0.026344156 0.05607082 -0.008279697
-0.010631074 0.0146534955 -0.028652076 -0.011480745 -0.0574916 0.013044019 0.04327719 0.021369519
0.023995576 0.02346259 0.014655861 0.024019782 -0.041311488 -0.055668686 -0.07789915 -0.0786629
-0.079322785 0.010314445 -0.04033551 -0.07357545 0.041003153 0.08548655 -0.10544705 0.0346824
