models/sony_images/states/tf_export/g_conv1_2/weights.npy (npy, 36992 bytes, 1 tensors)

array f4 [3, 3, 32, 32]
0.055791542 0.029130276 -0.08075174 -0.13946553 0.048174787 0.012537077 -0.09969074 -0.11514618
0.07595622 0.013878562 0.041869458 -0.018595794 -0.0365524 -0.12525387 -0.15498346 -0.13816898
-0.06370335 0.04440569 -0.07318775 -0.07167022 -0.06379899 -0.008601902 0.08590997 0.026713291
0.04705774 -0.1447189 0.018962782 -0.01834427 -0.024039574 -0.11286801 -0.0032819007 0.13806058
0.092446946 -0.0032550937 0.15916544 -0.14532307 -0.12571168 0.011422636 -0.06520773 -0.018241057
0.121203125 0.1522425 -0.043793753 0.06755204 -0.034070887 0.011820338 0.090034895 0.02156591
0.059900515 0.02963793 0.08972268 -0.029960064 0.080718145 -0.10229489 0.08774436 -0.021722121
-0.053502854 0.112851985 0.0896784 -0.05821728 0.023017898 -0.0029921895 -0.010337928 0.15700501
-0.014142671 0.0046490626 -0.086249925 -0.005347859 -0.046453483 0.042851795 0.045022156 -0.08052041
0.0021947783 0.050422452 -0.048886735 -0.08970671 0.085871324 -0.04519666 0.04912336 0.018160067
0.04256263 -0.030775132 0.015906742 0.0019985794 -0.032341972 0.0401477 -0.063624725 -0.025299631
0.038563386 -0.086279444 0.04191112 0.022730054 -0.111892715 -0.019946605 -0.026840577 -0.020349817
0.014307453 -0.07038952 0.021916276 0.008580848 0.09730565 0.035600957 0.16704649 0.05560202
-0.017356884 0.119767845 -0.038927443 0.029078456 -0.004490577 0.03818119 0.010379828 0.0905882
-0.07184132 0.02516873 0.1136307 0.08569194 -0.11496055 0.022565579 -0.03858101 -0.07620725
0.046694458 0.071167685 0.04901915 0.056765422 -0.0731702 0.049637537 -0.14646935 -0.115323566
0.14026834 0.03888708 -0.05935722 0.020555988 -0.046954747 -0.08268582 0.06266463 0.042176146
0.09706693 -0.056933604 0.03444278 -0.03824919 -0.05976851 0.017306715 0.06572914 0.11463646
0.024112396 0.03191245 0.0786236 -0.040737707 -0.030343886 -0.053553067 -0.101158366 0.0028938889
0.04911316 0.06595988 0.061500136 -0.039866153 -0.03800468 0.0928073 0.0690907 0.02281692
0.05487056 -0.11079373 -0.076555006 -0.03687266 0.07804556 0.06283165 -0.005904967 -0.042817596
-0.12350172 0.085514136 -0.12785305 -0.027727436 -0.02379223 0.04305025 -0.009902302 -0.08331709
0.0020274697 -0.027403232 0.07559715 -0.06281771 0.032938194 -0.10912677 0.0024905014 0.037615508
-0.014163179 0.15663028 -0.06690142 0.08532471 0.045069788 0.048341483 0.0039901654 -0.05156092
-0.043838605 0.13148114 -0.049207054 -0.010684031 -0.03334681 -0.046307076 -0.06556102 -0.05204547
-0.03859341 0.07305991 -0.061920296 -0.15574017 -0.019763766 -0.036220733 0.01022827 -0.09963638
-0.027148215 0.023430642 -0.02902526 -0.0015280468 -0.047373794 0.041192867 -0.0767639 -0.014155652
0.0922121 -0.009937172 0.11071089 0.047050625 -0.014151809 -0.014311026 0.06331835 0.01607999
-0.11933699 0.09826898 0.10238589 0.041128837 -0.07514844 -0.046353202 -0.08035383 0.052091446
0.068701476 -0.081005074 -0.069280386 -0.025207052 0.021587016 -0.0042408663 -0.06730834 0.038464908
-0.016645994 0.03883121 -0.07966132 -0.09246967 0.018806469 0.05746468 0.07072035 -0.06857998
0.076405436 0.03906854 -0.006332893 -0.08394644 -0.0060865623 -0.016589722 -0.20670108 -0.14471674
00000000: ac85 643d 9ea2 ee3c 2b61 a5bd 0dd0 0ebe
00000010: ed52 453d 5068 4d3c a92a ccbd c3d1 ebbd
00000020: ef8e 9b3d e862 633c 4f7f 2b3d 3556 98bc
00000030: f8b7 15bd 8d42 00be fcb3 1ebe 2b7c 0dbe
00000040: e776 82bd bee2 353d 76e3 95bd d6c7 92bd
00000050: 0ba9 82bd feee 0cbc 91f1 af3d d5d5 da3c
00000060: 9ebf 403d 3131 14be d657 9b3c b946 96bc
00000070: a4ee c4bc 5827 e7bd 2815 57bb c15f 0d3e
00000080: d354 bd3d 6953 55bb 44fc 223e 92cf 14be
00000090: 90ba 00be 0226 3b3c a18b 85bd 456e 95bc
000000a0: 5839 f83d 75e5 1b3e 1461 33bd b958 8a3d
000000b0: ea8d 0bbd 17aa 413c 3764 b83d feaa b03c
000000c0: 3e5a 753d 3fcb f23c 86c0 b73d cf6e f5bc
000000d0: 8e4f a53d fc7f d1bd 51b3 b33d 97f2 b1bc
000000e0: cf25 5bbd f11e e73d 4fa9 b73d 3e75 6ebd
000000f0: 0890 bc3c 9c18 44bb 6a60 29bc ecc5 203e
00000100: a9b6 67bc 2a57 983b cda3 b0bd 183d afbb
00000110: 0246 3ebd 5d85 2f3d 2769 383d e2e7 a4bd
00000120: 45d6 0f3b c687 4e3d 753d 48bd 27b8 b7bd
00000130: 4edd af3d 2220 39bd 9435 493d 6cc4 943c
00000140: 2756 2e3d 211c fcbc db4e 823c 99fa 023b
00000150: 0479 04bd ea71 243d ae4d 82bd 2c41 cfbc
00000160: a4f4 1d3d 47b3 b0bd ffaa 2b3d 6134 ba3c
00000170: 0228 e5bd 1067 a3bc c5e0 dbbc a9b4 a6bc
00000180: cf69 6a3c 6128 90bd c389 b33c af96 0c3c
00000190: 2f48 c73d 4fd2 113d 3c0e 2b3e f2be 633d
000001a0: 0630 8ebc d848 f53d 6272 1fbd f135 ee3c
000001b0: b125 93bb e163 1c3d 2710 2a3c 4e86 b93d
000001c0: 8b21 93bd a72e ce3c 36b7 e83d 417f af3d
000001d0: 7070 ebbd 73db b83c 1f07 1ebd 8c12 9cbd
000001e0: b042 3f3d 5dc0 913d 4ec8 483d dc82 683d
000001f0: 42da 95bd bb50 4b3d 10fc 15be c32e ecbd
00000200: 81a2 0f3e 0f48 1f3d 8e20 73bd 0865 a83c
00000210: 9f53 40bd 2f57 a9bd 5056 803d e5c0 2c3d
00000220: 07cb c63d 3633 69bd df13 0d3d 2fab 1cbd
00000230: d3cf 74bd d0c6 8d3c 009d 863d 85c6 ea3d
00000240: 5c87 c53c a1b6 023d 6905 a13d 95dc 26bd
00000250: be93 f8bc 765a 5bbd 1e2c cfbd 66a7 3d3b
00000260: e22a 493d f915 873d 91e7 7b3d b14a 23bd
00000270: ccaa 1bbd c111 be3d 6d7f 8d3d 8dea ba3c
00000280: f4bf 603d d3e7 e2bd dfc8 9cbd c907 17bd
00000290: 5ad6 9f3d e1ad 803d 747e c1bb 8161 2fbd
000002a0: 78ee fcbd 0922 af3d e9eb 02be a624 e3bc
000002b0: ece7 c2bc 7555 303d 443d 22bc 27a2 aabd
000002c0: 4cdf 043b be7c e0bc aed2 9a3d 92a6 80bd
000002d0: 33ea 063d db7d dfbd ae37 233b b812 1a3d
000002e0: ae0c 68bc b063 203e 9d03 89bd b9be ae3d
000002f0: 199b 383d b801 463d efbf 823b 8b31 53bd
00000300: 1c90 33bd fea2 063e 568d 49bd 130c 2fbc
00000310: aa96 08bd 7dac 3dbd db44 86bd a12d 55bd
00000320: 2014 1ebd 6fa0 953d 23a0 7dbd 5a7a 1fbe
00000330: 9fe7 a1bc 315c 14bd 7994 273c 290e ccbd
00000340: ef65 debc 9ef1 bf3c 62c6 edbc be48 c8ba
00000350: 060b 42bd dab9 283d 6436 9dbd 1ced 67bc
00000360: b3d9 bc3d 85cf 22bc 64bc e23d 28b8 403d
00000370: fddc 67bc cb78 6abc 0dad 813d 2fba 833c
00000380: f466 f4bd 3f41 c93d b2af d13d b676 283d
00000390: 6de7 99bd dbdc 3dbd 8c90 a4bd d75d 553d
000003a0: 5cb3 8c3d fde5 a5bd e0e2 8dbd 057f cebc
000003b0: 41d7 b03c f7f6 8abb f4d8 89bd 618d 1d3d
000003c0: 2e5d 88bc 7a0d 1f3d 7925 a3bd bd60 bdbd
000003d0: 0610 9a3c 1660 6b3d d5d5 903d a973 8cbd
000003e0: 747a 9c3d 5506 203d 2884 cfbb 1cec abbd
000003f0: c971 c7bb 2be7 87bc 73a9 53be a030 14be
