models/sony_images/states/tf_export/g_conv6_2/biases.npy (npy, 1152 bytes, 1 tensors)

array f4 [256]
000000 5d e2 2a be fa c8 10 be 58 e7 03 be 6b d9 88 3d
       -0.16687913 -0.14139166 -0.1288122 0.06682094
000010 26 04 14 be f5 01 f2 bd f9 ce 42 bd 72 2a d4 bc
       -0.14454708 -0.118167795 -0.047560666 -0.025899146
000020 0c 06 f2 bd 91 9a 48 be 75 74 17 be 1f 3a 1a be
       -0.118175596 -0.19590212 -0.14790519 -0.15061234
000030 78 b3 80 3d b1 a5 02 bd 3a f1 48 be 23 37 d9 bd
       0.06284231 -0.031896297 -0.1962327 -0.106062196
000040 80 0a 4b be f0 e6 2e bd ae 21 6c bd 23 7e fe 3c
       -0.19828224 -0.042700708 -0.057649307 0.031066006
000050 d7 44 f1 bd 91 80 c4 3c 19 89 a7 bc 31 1c ae bd
       -0.11780708 0.023987086 -0.020451115 -0.08501471
000060 af 0a 31 3c 6b 8e 69 3d 03 b2 e6 3c 74 c2 a5 3c
       0.01080577 0.057020586 0.028161054 0.020234324
000070 a8 03 ed bc e5 55 94 bd 1d 03 1d bc f7 3e 28 3b
       -0.028932407 -0.072429456 -0.009583262 0.0025672296
000080 b8 6f 90 3d 5b 29 2d 3d 9d b4 dd 3a d1 f0 d2 3d
       0.07052559 0.042275768 0.0016914789 0.10299838
000090 8c 32 99 3d e3 3c 0e 3a 97 c0 95 be a8 94 84 bd
       0.07480344 0.0005425943 -0.29248497 -0.064736664
0000a0 d6 e2 e9 bc 7d 3d 2b 3d da c0 4b 3e a3 0b d2 bd
       -0.028550547 0.041806687 0.19897786 -0.10256126
0000b0 53 c9 a6 bd 6b 3e 8e 3c 77 79 66 bd 96 44 9c 3d
       -0.08143868 0.017363748 -0.05626818 0.07630269
0000c0 b3 6d bc 3d b0 0f 23 be f2 e6 76 3d 2c 46 07 be
       0.09200611 -0.15923953 0.06027884 -0.13210362
0000d0 d7 ac cc bc 58 6d 7f 3d fc e7 4a be a9 5f ff bd
       -0.02498476 0.062360138 -0.19815058 -0.124694176
0000e0 5b 7e 9c bd f0 5e 0a be e0 93 25 be 8d 9d 95 3d
       -0.07641288 -0.13512778 -0.16169691 0.07305441
0000f0 91 db 76 bd ae eb 62 be 4c 33 2e 3d fd 6c 55 bc
       -0.06026799 -0.22160217 0.04252939 -0.013026473
000100 8c 3c 80 bb a2 45 5d be 29 bd 9b bd 9e fb 12 be
       -0.0039134677 -0.21608594 -0.07604439 -0.14353797
000110 43 48 33 be 0f 80 12 be 39 d2 72 be ce e5 d6 3b
       -0.17508034 -0.14306663 -0.23713006 0.0065581566
000120 51 e7 b0 bd b1 92 d0 3d f7 4b 3c 3d 47 53 56 3d
       -0.0863787 0.10184229 0.045970883 0.052325513
000130 7d ec 4f 3d e7 0a 01 be de b4 7e bc e1 7a 3c be
       0.050762642 -0.12601815 -0.015546052 -0.1840625
000140 37 45 9c bc e6 5e 65 bd 16 b5 ae 3c e5 cf 00 3d
       -0.019075973 -0.055998705 0.021326583 0.031448264
000150 f3 4e 2a be d5 43 c1 bc 8a f4 9d 3b 33 c3 90 bd
       -0.16631679 -0.023591915 0.004820411 -0.07068481
000160 d9 88 4e 3d 69 91 07 be 64 88 ae bc 03 4d 44 bc
       0.050423477 -0.13239063 -0.02130527 -0.011981252
000170 11 3f d9 bd f2 4c 14 3d c1 04 64 be ca eb b1 3c
       -0.10607732 0.036206193 -0.22267438 0.021718878
000180 81 5b a6 bd a1 e0 6c bd e3 24 87 ba a7 29 09 be
       -0.08122922 -0.05783141 -0.0010310676 -0.13394795
000190 d1 04 8f be db f8 84 bd 68 c0 9f bb d2 b1 f8 bd
       -0.27933362 -0.06492778 -0.0048752315 -0.121432915
0001a0 91 0b 3d bd 6a aa 2e bc 14 76 35 3d 74 e6 c5 bd
       -0.04615361 -0.010660747 0.04430206 -0.09663096
0001b0 f0 20 2e bd 39 d6 9e bd 1e c4 07 be a2 6f f4 3c
       -0.04251188 -0.077557035 -0.13258407 0.029838387
0001c0 95 bf ba bd b3 dc 2f 3d 2a 33 43 3c be 83 ce bd
       -0.091185726 0.042935085 0.011914054 -0.100837216
0001d0 9a 96 f8 bd 1c 75 1e be 8f e8 6d bd 60 0b 0b be
       -0.121381 -0.15474361 -0.058083113 -0.13578558
0001e0 58 08 75 3b 07 f3 35 bb 8b a8 81 bd e7 2c 94 bd
       0.0037389006 -0.0027763264 -0.06330975 -0.07235127
0001f0 55 ec 0a 3d 82 87 14 3e 5f 6e b0 bd 0c 29 32 3d
       0.03391679 0.14504817 -0.086148016 0.043496177
000200 2d a0 bb 3c af 7e 2b be f5 b9 1d 3c 58 f7 1b be
       0.022903526 -0.16747545 0.009626855 -0.15231073
000210 4c 60 20 bd de 03 bb bc 20 b6 79 bd 17 91 a3 bd
       -0.039154336 -0.022828992 -0.060964704 -0.07986658
000220 8a 8a 12 be 2b 1e 83 bd cc 2b ee bd 4f f2 8e bd
       -0.14310661 -0.064022385 -0.11629447 -0.069798104
000230 fd 91 f7 3d e1 8e 18 3d f7 18 84 bb 87 11 87 bd
       0.12088392 0.037245635 -0.0040312964 -0.0659514
000240 ea d5 0e bd be e9 8e 3d 00 24 ac 3d 61 59 06 3d
       -0.034871973 0.069781765 0.08405304 0.032800082
000250 da 34 1d be 65 8d 01 bd 0a 34 ce 3b 35 4e b1 bd
       -0.15352193 -0.031628985 0.0062928246 -0.08657495
000260 d9 0d 22 bd d5 e5 a5 bd 32 e4 60 3c d7 d2 2b 3a
       -0.039563987 -0.081004776 0.013726281 0.000655455
000270 d8 28 a1 bd ac 72 8e bd 05 7e ec bd af e4 49 be
       -0.078691185 -0.06955466 -0.11547474 -0.19716142
000280 95 1f 93 bd 32 ba 0a bc a3 ec fa bd 3b 67 84 3c
       -0.07183758 -0.008467244 -0.12252166 0.016162505
000290 2a 5d 21 be eb 36 8f 3c 1a d0 d8 bd 48 e2 9f bd
       -0.15758196 0.017482242 -0.10586567 -0.078068316
0002a0 5a 44 50 3c f4 22 4f bd 54 3b 1f 3d 2c 19 2a bd
       0.012711609 -0.050570443 0.03887494 -0.041527912
0002b0 08 c3 c5 3c bd 57 ac bc e7 d2 20 3d c8 c7 b5 bd
       0.02414085 -0.02103793 0.039263632 -0.08875996
0002c0 34 05 fe bd db 68 a2 bd be 4a cf bd 6d 91 02 be
       -0.12403336 -0.07930156 -0.10121678 -0.12750788
0002d0 d3 44 2b 3e 18 6f 70 bd 95 df 15 be d2 86 06 bc
       0.16725473 -0.058699697 -0.14636071 -0.008210855
0002e0 3e 9d e0 bd da 99 4d be 8e 5a 1a bd a0 2e 3b 3d
       -0.109674916 -0.20078221 -0.037684016 0.045698762
0002f0 0b 1d aa bd c4 23 74 bd 26 49 15 3c 38 a6 40 be
       -0.08306321 -0.05960442 0.009111678 -0.18813407
000300 3f 3b 4e 3d 87 5d 1e bd dd 09 fa 3d 1d d0 06 be
       0.05034947 -0.038663413 0.122089125 -0.13165326
000310 19 c7 5d bb 89 cf 51 3d 49 86 8c bd a4 f6 44 bd
       -0.0033840595 0.05122331 -0.0686155 -0.048086777
000320 2b 67 61 bd 91 4f 29 3d 62 39 8f 3c 8a e4 c8 3a
       -0.05503003 0.041335646 0.017483417 0.0015326899
000330 1d 2d 3f 3c 0f 43 ac bc 86 af 29 be 95 a9 c5 bd
       0.011668471 -0.02102807 -0.16570863 -0.09651486
000340 3e 75 17 bd 8d c5 3a be 20 20 0a be a6 ca 60 3c
       -0.036977045 -0.18239422 -0.13488817 0.01372019
000350 61 16 a0 3d 27 48 2b 3d 77 8b 0e bd 2c d2 31 3d
       0.078167684 0.041816857 -0.034800973 0.043413326
000360 53 47 7b 3d 14 16 05 bd ab 73 2f 3c 98 ee 53 bc
       0.061347317 -0.03249176 0.01070873 -0.012935303
000370 ff 04 52 be 5a 1e 5c be a3 81 bd 3d d6 06 1c 3c
       -0.20509718 -0.21495953 0.09253242 0.009523114
000380 a4 69 76 bd bd 9a 86 bd c5 5b fc bd 45 2d 86 bd
       -0.06015934 -0.06572483 -0.12322191 -0.06551603
000390 86 17 35 be b9 12 6a 3d 31 44 cd bc 9f 1e 02 3e
       -0.17684755 0.05714676 -0.02505693 0.12706994
0003a0 4e 74 71 3d b7 ec 86 bd 69 8e 87 bd 90 a5 f8 bd
       0.058948807 -0.065881185 -0.066189595 -0.121409535
0003b0 a6 e3 10 be 32 d0 88 3c 7c 09 d2 bd ff 40 7e 3c
       -0.14149341 0.016700838 -0.10255715 0.015518426
0003c0 f2 9d ce bd bb da e8 bd fc 7f d1 bd 98 86 7b bc
       -0.100887194 -0.113698445 -0.10229489 -0.015351914
0003d0 d0 d8 83 bd ee a6 2c bd d5 3c 88 bd 28 39 b8 3d
       -0.06437838 -0.042151384 -0.06652228 0.08995277
0003e0 10 12 9d 3d 06 37 95 3d e9 77 f2 3c 70 21 3f 3d
       0.07669461 0.072858855 0.029598193 0.046662748
0003f0 c0 1d 24 bd c5 b9 cc 3b 77 b8 43 bd 9f 6a 80 bc
       -0.040067434 0.0062477314 -0.04778334 -0.01567584
