models/sony_images/states/tf_export/g_conv10/weights.npy (npy, 1664 bytes, 1 tensors)

array f4 [1, 1, 32, 12]
-0.25022227 -0.0057611912 -0.073524855 -0.16310538 -0.0981524 -0.35527626 -0.13424042 -0.1261601
-0.11293742 -0.31947163 0.29186815 0.34601298 0.005388407 0.23425163 0.029687641 0.23728663
0.25244313 -0.10955855 -0.17123008 -0.029283358 -0.09632403 0.1398968 0.066615075 -0.08568716
-0.24297142 0.0610227 -0.27065262 -0.109176286 0.0870379 -0.0071752984 0.24359189 0.1675283
0.03935942 -0.1382937 -0.1478942 -0.19034691 0.13672906 -0.060941696 0.027982866 -0.13514194
0.21209039 -0.062700264 0.1970757 -0.12700748 0.34868318 0.0054804403 -0.18882774 0.069123805
0.21425352 -0.07000483 -0.2316242 -0.34452853 0.3642327 -0.29219407 -0.07388935 -0.23396227
-0.056293618 -0.18644048 0.102174394 0.35980496 -0.013842294 0.31914252 -0.086715735 -0.1726598
0.058896773 0.054539923 0.21486497 0.12088677 0.06481308 -0.2730105 0.11626376 0.0041198004
0.22190823 0.01184682 0.05487649 -0.22973008 0.19310434 -0.050585046 -0.021686366 -0.38601148
0.06400616 0.21088108 -0.18277538 0.1954778 -0.2194567 -0.02503747 -0.017841278 0.056877244
0.030080546 0.022721529 -0.19740352 0.17027816 -0.16738914 0.14697906 -0.21751307 -0.09164883
0.12078259 -0.0238226 -0.101264715 -0.011807167 0.018005928 -0.1820376 0.004088236 0.0588286
-0.05942633 0.062669665 0.01252158 -0.09183822 0.2235989 -0.34103853 -0.027242018 0.29619536
0.03808786 -0.21717688 -0.08580017 -0.025757821 -0.29155666 0.06434263 0.10881734 -0.06780157
-0.24348338 -0.2482938 -0.12975337 0.087167606 -0.11309834 0.2933218 0.14269175 0.21452951
-0.011470661 0.007008847 0.19815245 -0.15832192 0.19926904 0.18293072 0.34716633 0.25308388
-0.29155326 0.35740063 -0.19446416 0.15242322 -0.095988534 -0.051702105 -0.144506 0.24196835
0.26445344 0.28096014 -0.037215598 -0.0319849 0.2082496 0.14075136 0.15563044 -0.2951342
0.13222598 0.14303014 0.27385446 0.10505036 0.3402535 0.29418793 0.26900265 -0.21353401
0.048104946 -0.123299934 -0.16224925 0.008237547 -0.3477689 -0.024190944 -0.24165596 0.12176301
0.31149352 -0.077478126 0.20343596 -0.1947309 0.05680723 0.092791796 0.05111164 0.3424133
-0.33682314 -0.17281838 -0.31326124 0.047547687 0.093314596 -0.08835028 -0.25685024 0.03761411
-0.20918438 0.2019842 -0.24409081 -0.2873616 0.10629098 -0.3507595 -0.092259556 0.15989883
0.043385457 -0.27957368 -0.2759373 0.1056303 0.0014435418 0.17010717 0.23818086 -0.020285258
0.039444495 0.1359665 -0.06851774 0.050801724 0.05907086 -0.17902292 -0.087834366 0.021782776
-0.19839646 0.14120552 -0.18066901 0.2302642 0.26235187 0.17041263 0.16830507 0.10846402
-0.12160385 -0.008037496 -0.18746468 0.035719156 0.22535314 0.013673267 -0.028978147 0.32081324
0.065652445 -0.19241963 -0.0056594117 0.07855753 0.2849336 0.3257717 0.13691399 -0.3589851
0.07075521 0.24480721 -0.22950862 -0.1926432 0.19137941 0.17778839 -0.20740917 -0.108672164
0.34830752 -0.040394418 -0.27926883 0.18605022 0.29060358 0.10892799 0.15780511 0.09863223
-0.23788007 0.27389896 0.07407968 0.21158381 0.17233059 -0.33047393 0.2797302 -0.039889693
00000000: 221d 80be 60c8 bcbb 3394 96bd 1905 27be
00000010: 2004 c9bd c5e6 b5be 5276 09be 1d30 01be
00000020: bc4b e7bd c991 a3be be6f 953e 9d28 b13e
00000030: 3c91 b03b a9df 6f3e 7f33 f33c 44fb 723e
00000040: 3a40 813e 3c60 e0bd f056 2fbe a7e3 efbc
00000050: 8845 c5bd 1b41 0f3e 7c6d 883d c07c afbd
00000060: 80cd 78be f0f2 793d fb92 8abe d197 dfbd
00000070: ed40 b23d c41e ebbb 2770 793e 8a8c 2b3e
00000080: 5837 213d dd9c 0dbe 9471 17be 4dea 42be
00000090: b402 0c3e 009e 79bd 533c e53c a662 0abe
000000a0: 392e 593e ff68 80bd 36ce 493e 400e 02be
000000b0: 9a86 b23e 4495 b33b 0f5c 41be c890 8d3d
000000c0: 4665 5b3e b15e 8fbd e52e 6dbe 0b66 b0be
000000d0: b57c ba3e 769a 95be 4d53 97bd ce93 6fbe
000000e0: 2394 66bd 41ea 3ebe cf40 d13d 5b38 b83e
000000f0: caca 62bc a666 a33e 0598 b1bd bbcd 30be
00000100: be3d 713d 4165 5f3d 9005 5c3e 7c93 f73d
00000110: b8bc 843d 08c8 8bbe b21b ee3d 64ff 863b
00000120: e93b 633e 2a19 423c 2cc6 603d 5d3e 6bbe
00000130: 25bd 453e 4432 4fbd 9ba7 b1bc 4ca3 c5be
00000140: a915 833d 36f1 573e 7829 3bbe 552b 483e
00000150: 42b9 60be 611b cdbc df27 92bc 1df8 683d
00000160: 7a6b f63c 8022 ba3c 2624 4abe 665d 2e3e
00000170: 0f68 2bbe ae81 163e bfbb 5ebe 62b2 bbbd
00000180: dd5c f73d 9d27 c3bc e063 cfbd d972 41bc
00000190: 2b81 933c 1168 3abe 9cf6 853b 42f6 703d
000001a0: 0669 73bd f458 803d 5027 4d3c ad15 bcbd
000001b0: 1cf7 643e 9a9c aebe a72a dfbc eba6 973e
000001c0: 0402 1c3d 9e63 5ebe 00b8 afbd 1102 d3bc
000001d0: ea46 95be 12c6 833d a0db de3d 8ddb 8abd
000001e0: b553 79be bb40 7ebe 11de 04be ee84 b23d
000001f0: 1aa0 e7bd 462e 963e c91d 123e a0ad 5b3e
00000200: 70ef 3bbc 78aa e53b 7ae8 4a3e 241f 22be
00000210: 2f0d 4c3e 3152 3b3e c9bf b13e 3694 813e
00000220: 7846 95be 37fd b63e 9d21 47be d514 1c3e
00000230: a395 c4bd 96c5 53bd 62f9 13be 8dc6 773e
00000240: 7166 873e 02da 8f3e 626f 18bd 9902 03bd
00000250: 623f 553e 2021 103e 965d 1f3e d41b 97be
00000260: 3f66 073e 7e76 123e a736 8c3e a524 d73d
00000270: b535 ae3e cd9f 963e b7ba 893e a9a8 5abe
00000280: b109 453d ad84 fcbd ab24 26be c7f6 063c
00000290: c40e b2be 162c c6bc a974 77be e35e f93d
000002a0: 147c 9f3e daac 9ebd 8451 503e 8967 47be
000002b0: b3ae 683d a009 be3d 705a 513d cc50 af3e
000002c0: 1574 acbe 4df7 30be c763 a0be 5dc1 423d
000002d0: b91b bf3d fef0 b4bd e081 83be 4111 1a3d
000002e0: 6e34 56be f2d4 4e3e f1f2 79be 0f21 93be
000002f0: 16af d93d c096 b3be 94f2 bcbd 85bc 233e
00000300: f3b4 313d 4824 8fbe a747 8dbe b354 d83d
00000310: 3a35 bd3a 9330 2e3e afe5 733e 452d a6bc
00000320: 8d90 213d cd3a 0b3e 0753 8cbd 7815 503d
00000330: 49f4 713d c951 37be 81e2 b3bd cb71 b23c
00000340: 7128 4bbe 2e98 103e 4c01 39be 61ca 6b3e
00000350: fc52 863e a680 2e3e 2a58 2c3e 6222 de3d
00000360: 700b f9bd b4af 03bc bef6 3fbe 404e 123d
00000370: f9c2 663e d705 603c 9463 edbc a241 a43e
00000380: ca74 863d a709 45be 9672 b9bb c5e2 a03d
00000390: d1e2 913e 8ccb a63e 2e33 0c3e e5cc b7be
000003a0: 1ce8 903d beae 7a3e 4f04 6bbe 4244 45be
000003b0: f7f8 433e 290e 363e 1263 54be 838f debd
000003c0: 5d55 b23e 9e74 25bd 53fc 8ebe f383 3e3e
000003d0: fec9 943e a315 df3d aa97 213e b2ff c93d
000003e0: d596 73be 7c3c 8c3e 16b7 973d 6da9 583e
000003f0: 6e77 303e e133 a9be cc38 8f3e 6063 23bd
