models/sony_images/states/tf_export/g_conv2_1/weights.npy (npy, 73856 bytes, 1 tensors)

array f4 [3, 3, 32, 64]
000000 a4 ac 00 be b9 b3 88 3d 46 ab 44 3d e8 56 fa 3d
       -0.12565857 0.066749044 0.0480149 0.12223607
000010 dc 6b 79 bd d4 79 65 ba 32 b5 4a bd 96 9b 19 bc
       -0.06089388 -0.00087538105 -0.049489208 -0.0093754735
000020 01 94 4b bd 38 16 7f bd a4 ab 9e be 27 9d 9a ba
       -0.049701694 -0.06227705 -0.30990326 -0.0011796103
000030 4f 07 ae bb 52 34 ac 3d 7b 92 41 3d 90 27 7f 3b
       -0.00531093 0.08408417 0.047258835 0.0038933493
000040 14 71 bf 3d fe eb 76 3c e4 97 6d bc 95 b8 79 3e
       0.0934774 0.015070913 -0.014501546 0.24386819
000050 89 4c 72 bb d6 2c e3 bc f9 49 39 3d 7c 6a 03 3d
       -0.0036971888 -0.02773134 0.04523656 0.032083973
000060 7f ee 98 3d d4 a0 84 3d 33 67 91 3d 50 f7 d5 bd
       0.074673645 0.06475988 0.07099762 -0.10447562
000070 e2 97 87 bd d4 68 f1 3d c5 6d 26 bc 7d a4 68 3e
       -0.06620766 0.117875725 -0.010158007 0.22718997
000080 e3 91 ae bc 1c 47 22 3d ed 94 90 bb 15 62 42 bc
       -0.021309799 0.039618596 -0.0044122846 -0.011864205
000090 27 81 cb bd a4 f9 ef bd 63 50 08 3d e4 d1 8c 3e
       -0.09936743 -0.11717537 0.033279788 0.27503884
0000a0 87 8a 36 3d 9e 89 80 ba 70 16 db bd 2e 24 51 bd
       0.044565704 -0.0009806638 -0.10697639 -0.051059894
0000b0 43 1c 47 bc 80 1b 5a 3d d0 af a7 3c 2a be e3 3c
       -0.012152734 0.053248882 0.020469576 0.027800638
0000c0 69 32 20 3e 3f 0a 64 3d 4e d2 a5 bd 68 93 84 3d
       0.1564423 0.055673834 -0.08096753 0.06473428
0000d0 82 11 e8 b9 52 1a 75 bb 39 4c 0a 3e 54 b8 74 3d
       -0.00044263533 -0.0037399721 0.13505639 0.0597461
0000e0 f0 2a 08 bd 46 2a de 3c b5 dd 74 bd b6 35 db bd
       -0.033244073 0.027119767 -0.05978175 -0.10703604
0000f0 55 78 1a 3d 91 98 b1 3d 98 61 ce 3d e0 b9 79 3c
       0.037712414 0.08671678 0.10077208 0.01524207
000100 53 4f 62 3d c4 e0 b6 bd 2e e1 53 bd 9d d8 1d 3d
       0.05525143 -0.089295894 -0.05172842 0.038536657
000110 3a 86 82 3c be 03 37 bd 48 e2 40 3d 36 92 35 bd
       0.015933145 -0.044681303 0.0470908 -0.04432889
000120 c4 0a 03 be 4f 95 fa 3c 0b 47 3d 3e 86 06 5f 3d
       -0.12797076 0.030588774 0.18484132 0.05444958
000130 c7 a3 90 bd ec 99 6b bd 0d a9 e0 3c 7a fe 62 3d
       -0.07062488 -0.05751984 0.02742436 0.05541847
000140 de 39 74 3c 88 e5 5e bd a9 1c a1 bd 3e 2f f1 bd
       0.014906375 -0.054418117 -0.078667946 -0.11776589
000150 a8 eb 94 3d 76 12 90 3b d2 d4 d5 3c 34 5d d1 3c
       0.0727151 0.004396732 0.026102457 0.025557138
000160 e6 24 92 bd 3f cc e6 3c 74 9f 5a bd d5 0f 27 3d
       -0.07135944 0.028173564 -0.053374723 0.040786583
000170 ea db bd 3c 87 68 46 3d aa 44 5f 3b e3 68 79 bd
       0.023176152 0.04843953 0.0034068027 -0.060891043
000180 9c 64 3e 3d 81 dc 0d bd 9a 60 a4 3c 2f ad c6 3c
       0.046482667 -0.034634117 0.020065594 0.024252502
000190 74 81 fd 3d 87 1e be 3d 1d c4 ab bd 3a 6e d0 bc
       0.12378207 0.092831664 -0.08387015 -0.025443185
0001a0 b8 5d 87 3c 8e 6d 50 3d 63 cd 43 3c fb 1c 46 3d
       0.01652418 0.05088573 0.0119508235 0.04836748
0001b0 2e fe 00 bd 5f 40 fe 3c dc 64 a0 bd 8e b0 bd 3d
       -0.031492405 0.031036554 -0.078317374 0.09262191
0001c0 f6 c4 68 bd 64 9e 03 be 88 4d c7 bc f3 f6 83 bd
       -0.05682846 -0.1285339 -0.024328962 -0.06443586
0001d0 91 0a d9 bd a1 eb a8 3c 9f f8 06 3c 61 19 51 3d
       -0.105977185 0.02062017 0.008237987 0.051049594
0001e0 f2 1a 18 bd 35 57 a4 bd dd ac 62 bd ea 34 d3 bc
       -0.037135072 -0.08024446 -0.055340637 -0.025782067
0001f0 92 d7 cb bc f1 f7 d3 bc 9c b2 5e 39 e5 a3 85 3d
       -0.024883065 -0.025875064 0.00021238107 0.06525401
000200 0c 8b 0c bc c9 12 3c 3e 91 cc 85 3d 61 71 95 3c
       -0.008578073 0.18366541 0.065331586 0.01824254
000210 dc 52 52 bb df c6 00 be 61 b5 cb 3c 09 90 da bc
       -0.0032092845 -0.12575863 0.024866762 -0.02668001
000220 5b d2 73 bd e5 dc b7 3d 2b c9 8d bd 81 8d 28 3e
       -0.059526782 0.08977679 -0.06923135 0.1646023
000230 fa d4 b3 bd 15 f2 8a 3d 40 fc c4 bc 55 d5 11 bb
       -0.087808564 0.06784455 -0.024046063 -0.00222524
000240 53 c1 5d 3d 25 84 51 bd 75 c2 ac bd 61 61 1c 3d
       0.054139446 -0.051151413 -0.08435527 0.038178805
000250 63 76 27 bd 56 1a 9c bc ae 0c 93 bd cf 8c b1 bd
       -0.040884387 -0.019055527 -0.07180153 -0.08669435
000260 86 e9 87 bc 15 cb 2f 3d ae 13 46 bd 92 0d 0e bd
       -0.016590845 0.042918283 -0.04835861 -0.03468091
000270 ff 10 3b bc 2f e7 96 bc 85 13 c7 3c cb f9 4d 3d
       -0.011417626 -0.018420784 0.0243013 0.05028705
000280 5b 30 2c 3d 11 f3 d6 bd b2 75 dc 3b dd 1c 27 3e
       0.042038303 -0.1049558 0.0067278976 0.16319604
000290 ee 76 4f 3d 96 73 1b be 77 fc 81 bd fe 15 10 3e
       0.05065053 -0.15180811 -0.06346982 0.1407089
0002a0 a0 a7 c6 bd d0 34 38 3c a2 c2 71 3d 89 b8 be bd
       -0.09699941 0.01124306 0.059023507 -0.09312541
0002b0 10 b4 b8 3d f6 bc f6 bd 0c 1f 1d 3d b4 15 d8 3c
       0.09018719 -0.1204776 0.038359687 0.026377536
0002c0 b7 8e a5 3d 84 41 c9 bd 97 60 12 3c 9e ce 1c 3e
       0.08083861 -0.09826949 0.008934162 0.15313193
0002d0 93 b8 ff bd 86 c0 9e bd a7 ee 14 bd bd 76 af bc
       -0.124863766 -0.07751565 -0.03636041 -0.021418924
0002e0 f4 f8 03 3d 4c cb ad bd 5c a7 aa 3d 1e de 43 bd
       0.032219842 -0.084860414 0.083327025 -0.04781925
0002f0 c7 ba 0e 3d 19 53 f4 3b cc 6a d9 3d b3 49 73 bd
       0.034846094 0.007456195 0.10616073 -0.059396457
000300 55 3e f7 3c 53 03 23 3d 4f cd 8f 3d 9a a6 cc bd
       0.03018109 0.039798092 0.070215814 -0.09992714
000310 0a d2 bf bb 82 47 c4 bd b2 28 de 3c 8f 6a d5 bc
       -0.005853896 -0.095839515 0.027119014 -0.026051788
000320 ca 7b 6b 3d 71 37 63 bc 08 ef af 3d 5f f7 a3 bd
       0.0574911 -0.013868199 0.085905135 -0.08006167
000330 14 72 1a bd bf 52 a9 bc 9f 6a cd bc 79 fe 14 3d
       -0.03770645 -0.02066934 -0.025075255 0.036375497
000340 a3 07 21 be 1d 7b 2d bd 65 8b aa 3c 71 1b 41 3d
       -0.1572557 -0.042353738 0.020818422 0.04714531
000350 12 2b ff 3c 1c 4d c4 bd 6a 26 48 3c 3f 5f 74 bd
       0.031148467 -0.0958502 0.01221619 -0.059661146
000360 11 df de bd 0c 6b 90 bd 32 ba 3d 3c ea 5c cb bc
       -0.1088239 -0.070516676 0.011580037 -0.024824578
000370 e5 3f 94 bd 70 db cc bd 99 f7 3e bd 2e a2 b3 bd
       -0.072387494 -0.10002792 -0.046622846 -0.08771168
000380 80 96 a8 3c 9c 10 4c 3d d8 a8 88 bc 81 95 8e 3d
       0.020579576 0.049820527 -0.016682073 0.06962109
000390 ab 57 24 3d ec e2 a3 3d 78 14 1d bd c7 f4 22 be
       0.04012267 0.08002266 -0.0383496 -0.15913688
0003a0 5d 96 46 bd e4 01 c7 bd 83 20 67 bd 38 83 ab bd
       -0.04848324 -0.097171575 -0.05642749 -0.08374637
0003b0 d8 99 9f bd 4d 9a 24 be 73 ee c2 3c 53 d5 a1 3d
       -0.07793015 -0.16074486 0.023795342 0.079020165
0003c0 83 ca e2 bd 4a ed 90 bc 33 53 fe bc 93 4e d2 bd
       -0.11073782 -0.017691273 -0.031045532 -0.10268893
0003d0 c4 b9 ed bd 5e d8 c8 bb 63 c5 9a bd 8c 3f 40 bd
       -0.116076976 -0.0061293086 -0.0755718 -0.046935603
0003e0 fe 22 08 be 0f 53 aa bd 5e f9 aa bd 66 19 a9 3d
       -0.13294598 -0.083166234 -0.08348344 0.082567975
0003f0 96 87 89 3c 7a f2 b7 3b ed 19 8e bd 3d 83 36 3d
       0.016788285 0.0056136223 -0.06938539 0.044558752
